pretrained/classifier_mnist.pt (torch, 949974 bytes, 78 tensors)

models.0.model.0.weight f4 [16, 1, 3, 3]
00000000: 7ce1 66bc 4d96 073e 9c09 8bbe ddd1 64be
00000010: 8d64 15be b129 2b3d 8c8c c93a 9725 633e
00000020: 7c00 64bd 17f5 0dbc 058d 90bd d69a 8cbe
00000030: 5725 afbe cab2 debd c306 dabd db5d 18bd
00000040: b3bf 343e 0f55 603e 33a1 6cbe 36b0 80be
00000050: fafc 6b3c 1369 8d3e 4b62 8dbd ce71 833e
00000060: 5118 90bd 1eb2 d43c a0d9 813e bfd4 46be
00000070: 7643 debd d60c d8bd 9943 4bbe 09cd 9e3e
00000080: f1fa 72be 0283 82be b5ef 0abe 158c 3fbe
00000090: f7f5 87be 5fb1 6e3e 03f4 4b3e f72c 6f3e
000000a0: 087d af3d ef89 13be baaa e13d b4c0 43be
000000b0: 7340 c5bd 6496 7abe c8b5 0d3e d342 223e
000000c0: 3c58 1dbe 1f20 a53d 43c3 403e ca8d 953e
000000d0: 20cc c63d ef7d 4bbd 9294 593e 8cbe 9abe
000000e0: be68 bd3b 8d77 a5be d942 99be 5c66 54be
000000f0: d5c2 023e 05e1 293e b29f 80be 36c8 203d
00000100: 49f7 3d3e b7c6 b8bd 4024 7f3d 4cde 7c3d
00000110: b283 0e3e d3c1 be3e b212 57be 3a1d 05be
00000120: 2406 a43d fb10 893e 9275 bb3e dbbb 333e
00000130: 87e1 eb3c 8b2e 61be f30c b4bd 2cae 86be
00000140: 9c00 9bbe 7471 ae3e 22cc 723e b3e7 b7be
00000150: cc32 9d3d e527 9abb 9ba7 d1bc bbe7 2bbe
00000160: f372 113e ee9d 43be a375 b63d e8bf 343e
00000170: abeb 943e d401 b63d 62cd acbe 32ba 45be
00000180: 7fba 1d3e 771f f63c 6751 83be 78a9 3ebe
00000190: 5b1d a73e a69e 553e e0db 13be 3824 3bbd
000001a0: d448 aabe c2e4 a13d f8c0 5abe dfd0 76be
000001b0: c3bf 39bd ff75 ff3c efdd 29be eead 363e
000001c0: b46c 4ebe c4ee 963e b10e 853e 08d6 91be
000001d0: 004c 67bd 7e73 44bb 4a9c 973d 597d 163e
000001e0: 1123 fc3d 86ca 7d3b 2398 f8bd 8d0e 653e
000001f0: 599f 20be 39cd e6bd 2b32 5c3d 7497 88be
00000200: 0f8c 0cbe 8da6 b8be 0a33 693a 9b98 da3d
00000210: 09c4 88be 7b5a d83c 92b7 573e 80bc 32bd
00000220: 8b29 95bd fcaf 83be 84be d83d d3a2 753e
00000230: a043 5c3e f0cc 003e 812c c23e 259e 453d
-0.014091846 0.13240929 -0.2715577 -0.22345681 -0.14589138 0.041787807 0.0015376969 0.22182308
-0.055664524 -0.008664391 -0.07058147 -0.2746188 -0.34208176 -0.10873945 -0.10645821 -0.037198883
0.17651252 0.21907447 -0.23108368 -0.25134438 0.014403576 0.27619228 -0.069035135 0.25672764
-0.07035888 0.02596384 0.25361347 -0.19417094 -0.10852711 -0.10549323 -0.19850005 0.31015804
-0.23728539 -0.25490576 -0.13568003 -0.18705781 -0.26554844 0.23309849 0.19917302 0.23356996
0.0856877 -0.14408086 0.11018892 -0.19116479 -0.09631433 -0.24471432 0.13838875 0.15845804
-0.1536569 0.08062767 0.18824486 0.2920974 0.097069025 -0.049680647 0.21248081 -0.302235
0.0057803085 -0.32317773 -0.29933813 -0.20742172 0.12769635 0.16589744 -0.25121838 0.039253436
0.18551363 -0.09022277 0.06229043 0.061735436 0.13917425 0.3725725 -0.21003225 -0.1299943
0.08008984 0.26770768 0.36613137 0.1755213 0.028794063 -0.21990411 -0.08791532 -0.26304758
-0.30273902 0.34070933 0.23710683 -0.3591896 0.07675704 -0.004704463 -0.025592616 -0.16787617
0.14204006 -0.19103214 0.08909156 0.17651331 0.2908605 0.088870674 -0.33750445 -0.19309309
0.15403174 0.0300443 -0.25648043 -0.18619335 0.32639584 0.20861301 -0.14439344 -0.045688838
-0.33258688 0.0790496 -0.21362674 -0.24103115 -0.045348894 0.031184195 -0.16588567 0.17839786
-0.20158654 0.2947904 0.2598777 -0.28483605 -0.056468964 -0.0029976065 0.07402857 0.14696254
0.12311376 0.003872545 -0.12138393 0.22368832 -0.15685786 -0.11269612 0.05375878 -0.2667805
-0.13725303 -0.36064568 0.000889585 0.106736384 -0.26712063 0.026410332 0.2106612 -0.0436368
-0.07283314 -0.25720203 0.10583213 0.23987894 0.21510172 0.12578177 0.3792458 0.04824652

models.0.model.0.bias f4 [16]
00000000: 5a07 9ebe 9b3f 14be 9f3d 1c3e ed01 6ebc
00000010: 2589 2cbe 6af4 a9be 5b58 98be 922a 9cbe
00000020: 76f4 aabd e6fc ab3d a86c 313e e4ab 96be
00000030: bf4d 0c3e 4974 90be 464d 26bd 7b4a ab3c
-0.30864984 -0.14477389 0.15257882 -0.014526826 -0.16849191 -0.33194286 -0.2975491 -0.3050123
-0.083474085 0.08397846 0.17326605 -0.29428017 0.13701533 -0.2821372 -0.040601037 0.020909538

models.0.model.2.weight f4 [16]
00000000: a429 673f 3849 7f3f 429c 583f e21d 693f
00000010: 0498 863f 836f 703f 18f2 703f b9e3 6b3f
00000020: b273 6c3f 5f35 663f df50 713f 2bb9 623f
00000030: b07e 6d3f e352 653f 01ab 8d3f 8fd4 4b3f
0.90297914 0.997211 0.8461343 0.9106122 1.0515141 0.93920153 0.94119406 0.9214435
0.9236404 0.8992519 0.94264024 0.88563794 0.92771435 0.895796 1.1067811 0.79621214

models.0.model.2.bias f4 [16]
00000000: 989a 283b 3386 0e3e 067a ae3d 3e48 103d
00000010: 5992 243d a778 3e3e 40ee f63b e185 db3d
00000020: b600 003e 04ba b63d b606 153d 9b0c bb3d
00000030: ae7e 3f3d e223 553d 6353 c43d 0c3f 0c3e
0.002572691 0.1391838 0.08519368 0.035225146 0.04017863 0.18600713 0.007535726 0.10718895
0.12500271 0.089221984 0.036383353 0.09133264 0.04675167 0.052036174 0.09586217 0.13695925

models.0.model.2.running_mean f4 [16]
00000000: 0400 0000 8c62 263b de6f 3d3e a769 8836
00000010: f927 2d3c e4e6 9d3c c4ad 8f33 149d 613c
00000020: f3b3 0e3d d9b7 e03d 9210 413e 66ca 9c39
00000030: 7374 0f3e 9395 2b3b 88a3 d03b 4fe8 003e
6e-45 0.0025388328 0.18499705 4.0654154e-06 0.010568612 0.019275136 6.690564e-08 0.0137703605
0.03483958 0.10972566 0.18853977 0.00029905437 0.14009266 0.0026181682 0.0063671507 0.12588619

models.0.model.2.running_var f4 [16]
00000000: 0400 0000 bff5 aa39 6708 8c3c bfe0 b434
00000010: 2f84 fc3a 7bbf 993b 6150 4c31 5364 213b
00000020: 2868 613c d345 443c 0105 3d3c 39bb f437
00000030: b7f2 6f3b 60b6 9439 24b9 813a b78a 623d
6e-45 0.00032608022 0.01709385 3.3691137e-07 0.0019265468 0.0046920157 2.9731597e-09 0.0024626448
0.013757743 0.011979538 0.011536838 2.9174249e-05 0.0036613175 0.0002836464 0.0009897095 0.05530807

models.0.model.3.weight f4 [16, 16, 3, 3]
00000000: 8a44 10bd 1a5d 8fbc ebd1 8fbc dd04 47bd
00000010: 372d 33bc 13bb 553d 0c2c 48bd 911b 043d
00000020: 13d2 61bd 42c7 d9bd 8a3c d3bc 95dc 3ebe
00000030: 6775 9f3d 97c4 ed3c e8cf 93be 9aca 273d
00000040: 1bba a5bd 56ee 4bbe 1c5b 7a3d fda1 babd
00000050: b86b 08bc 511e 79bc e956 2b3d ebc2 093d
00000060: a893 963d a2a6 273d 3439 1f3c 2a7e 8ebd
00000070: ee47 e83c 07fa 2abd b887 8a3d fef5 033e
00000080: a6e9 2cbc 5b7c f5bb 9965 0b3c 137c 013d
00000090: 0e80 1bbc f833 9e3b 96d1 0bbe 2d11 173e
000000a0: 031f 5d3d 8d58 e3bc 6338 c23d 9aa4 3cbd
000000b0: 9e7e c0bd bde9 bc3d 7a58 5abd d4c0 3dbb
000000c0: 3516 033d 645f 4cbc a95e 9cbc 5bbf 2a3d
000000d0: e1f3 bd3d 3efe 5d3d 5d3d 89bd a0ce 2a3d
000000e0: 6ccd 82bd b293 3c3d 86b2 9c3d 852b c1bb
000000f0: 8f02 05bd 1a66 05bc fadf 663d 9c39 0dbc
00000100: d022 b2bd e293 393d 954b 81be e488 f3bd
00000110: bb6d 9bbd b5ab c2bd e7ad d0bc 5994 ef3d
00000120: efef 2e3b 5c75 cb3d 5edf 763d ae5e 42bd
00000130: af24 433d 8464 93bd c69b a9bd 90a6 e1bc
00000140: 6cc4 a9bd b2a6 01bd dbe3 debc 904d 483d
00000150: 9562 34bd f8ef afbd 73da 6c3d 8105 2bbe
00000160: 692c dbbc 01ad a1bb 858b 9dbd 9db5 763d
00000170: 91aa 0d3e 6a7b e8bc 8fe8 96bd 2af1 c8bc
00000180: b935 debd 6e0c 293c 3839 bebd a274 57be
00000190: e798 84bd 50a8 7a3d bc7e d8bc ff8d 083d
000001a0: f7d6 12bb 0b43 043e fa51 bf3d 3f78 47bd
000001b0: ff6f d6bc 3f84 1bbd e4f9 bbbc f798 a0bd
000001c0: 4eca 24be 5108 4ebd 7896 07be 17fd 01be
000001d0: ce81 1a3e f759 89bc 796c 52bc 62d3 25bd
000001e0: 153d aabd b082 d0bd 115e 02be 2396 c03d
000001f0: 5a36 47bd 9439 033e 844c 29be be30 d3bd
00000200: d3f3 4fbe 83b6 983c 5909 ecbd e126 b5bd
00000210: 9e76 163e b157 103e 4165 f9bc 510f 92bd
00000220: 7af0 8a3d ea39 97bc 71d1 f1bc 79db 15bd
00000230: b66e 31bc fd49 863b 8313 e2bb dff2 7c3d
00000240: 8285 913c a7c5 82bc 86e4 c33c b06d c1ba
00000250: 6b7f 843d 8638 b8bc cbfe ccbd c479 753b
00000260: e667 353d bba1 01be 9c45 233e 9a1b 153e
00000270: 1fbe 1fbd 21a9 9ebd f7b9 1abc c621 c63c
00000280: ef7f bf3d 74a6 8e3d 8137 a3bd 98d8 103d
00000290: 9f61 7c3d 31bd 733c 4fac 183c 49b5 07bd
000002a0: c228 793d 96fe 19bd e2a7 e5bd 55ef a5bd
000002b0: efce d13c dedd 1b3d f9e0 36be 3e0b 43bd
000002c0: a10f 8e3d 2701 353d 0f39 8dbc 74e6 66bd
000002d0: 75be c7bd 1d71 80bd 2271 ac3d 286a 933c
000002e0: 1c6e 2dbd e210 1a3e 15f5 5c3c b205 df3c
000002f0: 16ac cfbc 893a c93c 1897 9f3c cbb9 363e
00000300: 07f7 69bd 1402 383d 8409 4e3d b353 24bd
00000310: d8a1 dfbb 5e12 393d 77ed c13d d83c 903c
00000320: a168 9c3c 4c9c 80bc e6c0 f73c 9896 a5bc
00000330: 248e 953d e04a c53c 7b37 5fbc 3244 99bd
00000340: a942 d7bb 9e9b 193d d6f2 2bbd e0e5 2b3d
00000350: f8d0 7fbd ced8 c7bd c0cc 58be eb9a 00be
00000360: 700e 5b3d 7a60 b43d 01ea 153e c097 7e3d
00000370: cb76 dc3d 0dd2 6c3d 8184 3e3d 0c56 8f3d
00000380: 943b 0b3c 72fd 073e 52e4 9d3d b137 093d
00000390: a85d 68bb d5c3 4c3d 0100 3c3c ab64 f2bd
000003a0: 5110 08be 1b96 8abd fdcd 8cbd 4534 973d
000003b0: dac2 f33d f2b7 4e3d 4366 043d ef87 0f3e
000003c0: 0195 953d e5bc 583d 78a3 fd3c c934 1a3d
000003d0: 72d5 e83d d5ae 9dbd 46ec 023e e6bb 9b3d
000003e0: 1060 7b3c bc28 dd3b a464 bbbd 4ab9 67bd
000003f0: 0ce7 793c 8687 b63c 44ff e6bd 9663 59bc
-0.035221614 -0.017500449 -0.017556151 -0.048588622 -0.010936073 0.05218036 -0.04887013 0.032252852
-0.055131983 -0.106337085 -0.025785703 -0.18638833 0.077860646 0.029024405 -0.28869557 0.0409647
-0.080921374 -0.19915137 0.061122045 -0.09112928 -0.008326463 -0.015204982 0.04183093 0.033633154
0.07352382 0.040930398 0.009718228 -0.06957658 0.028354611 -0.04174235 0.067641675 0.12886807
-0.010553753 -0.007491631 0.0085081095 0.031612467 -0.00949098 0.0048279725 -0.1365417 0.14752646
0.053984653 -0.027752185 0.09483411 -0.046055414 -0.0939915 0.092242695 -0.053307034 -0.0028954046
0.0320036 -0.012473915 -0.019088106 0.041686397 0.09275032 0.054197542 -0.06701157 0.04170096
-0.06386837 0.04603929 0.07651238 -0.0058950805 -0.032473143 -0.008142019 0.056365944 -0.008619692
-0.08698046 0.045307048 -0.25252977 -0.11891344 -0.07589289 -0.09505407 -0.025473548 0.11698217
0.0026693305 0.09934494 0.060271613 -0.047453575 0.047642406 -0.07196906 -0.082816646 -0.027545244
-0.082894176 -0.031653114 -0.02720826 0.048902094 -0.044039328 -0.08590692 0.057825517 -0.16701318
-0.026754575 -0.0049339538 -0.07692627 0.060231794 0.13834597 -0.02837916 -0.07368576 -0.024529058
-0.108500905 0.010317905 -0.09288257 -0.21040586 -0.06474476 0.06119567 -0.02642762 0.033338543
-0.002240596 0.129162 0.09341808 -0.04869866 -0.02617645 -0.037967917 -0.022946306 -0.07841676
-0.16092798 -0.0503009 -0.13240993 -0.12694202 0.15088579 -0.016766531 -0.012843245 -0.040484793
-0.08312432 -0.10181177 -0.12731196 0.09403636 -0.048635818 0.12814933 -0.16533095 -0.10312031
-0.20307855 0.018641716 -0.115252204 -0.08845306 0.14693686 0.14095952 -0.03044379 -0.071318276
0.067841485 -0.018460233 -0.029518815 -0.03658626 -0.010829618 0.0040981756 -0.0068992986 0.061755057
0.017763857 -0.015963389 0.02391268 -0.0014757421 0.064696155 -0.02248789 -0.100095354 0.0037456611
0.04428854 -0.12659352 0.15944523 0.1456131 -0.038999673 -0.077471025 -0.009443752 0.024186026
0.09350573 0.06965342 -0.07969571 0.03536281 0.061616536 0.01487665 0.009318425 -0.03313187
0.060829885 -0.037596308 -0.11213662 -0.081022896 0.025611369 0.038053386 -0.17859258 -0.047618143
0.06936575 0.044190552 -0.017239122 -0.05637212 -0.09753124 -0.06271575 0.08420016 0.017994955
-0.042341337 0.15045503 0.0134861665 0.027224395 -0.025350612 0.024564045 0.019481227 0.17844312
-0.05712035 0.044923857 0.050302044 -0.040118884 -0.006824713 0.045183532 0.09469121 0.017607138
0.01909286 -0.015699528 0.030243348 -0.02021341 0.07302502 0.024083555 -0.013624067 -0.0748371
-0.006569226 0.037501924 -0.041979633 0.041967273 -0.062455148 -0.09758149 -0.21171856 -0.12559097
0.053480566 0.08807464 0.14640047 0.06215644 0.107648455 0.057817508 0.046513084 0.06998834
0.008498091 0.13280275 0.07709564 0.033500377 -0.0035456214 0.049991447 0.01147461 -0.11835607
-0.13287474 -0.067669116 -0.06875227 0.073830165 0.11902399 0.050468393 0.032324087 0.14016698
0.07303811 0.05291452 0.030961737 0.037647996 0.113688365 -0.07699362 0.12785444 0.07604198
0.015342727 0.0067492407 -0.09150055 -0.05657319 0.01525284 0.02228142 -0.11279157 -0.013268372

models.0.model.3.bias f4 [16]
00000000: f8ac 873c 9bad ef3c 801c 69be e602 87bb
00000010: 1bd0 813c f2e9 533d 8dfa 9e3d f944 04bd
00000020: bbc5 04be 7a23 f2bb 29ee 50be 8858 23be
00000030: eca8 293d 4c4c d8bd e0d5 49be 1942 e33d
0.01656197 0.029257586 -0.22764778 -0.0041202186 0.015846303 0.05173678 0.077626325 -0.03229234
-0.12966053 -0.007389483 -0.20403351 -0.1595174 0.041420862 -0.105614275 -0.19710493 0.110965915

models.0.model.5.weight f4 [16]
00000000: ebff 703f 3d74 723f 084e 633f fb21 6c3f
00000010: 3d0a 533f 89cc 8a3f cdd5 643f abc7 5b3f
00000020: f6be 4e3f 7bb3 773f ab18 663f 6a21 573f
00000030: 9c20 713f 726a 573f ea62 6b3f a21d 893f
0.941405 0.94708616 0.8879094 0.9223935 0.824375 1.0843669 0.89388734 0.85851544
0.80760133 0.9675824 0.8988139 0.8403536 0.9419038 0.841468 0.91947806 1.0712168

models.0.model.5.bias f4 [16]
00000000: 2d2a 1f3d 5e2a 773d ccd2 eebc d6f8 523e
00000010: 7c32 673e d726 5b3d c997 243c 18df cf3d
00000020: 220d 543e b6c5 ebbc 5259 89bd 5209 c63d
00000030: d964 de3d 51b9 123e feaf 743e 1d41 a13c
0.03885858 0.06034314 -0.02915325 0.20602736 0.22577852 0.053503837 0.010045954 0.10149974
0.20708135 -0.0287808 -0.067064896 0.096697465 0.10859079 0.14328505 0.2389526 0.019684369

models.0.model.5.running_mean f4 [16]
00000000: 9568 7b3e dfaa 963e 7784 7e3d f0a9 863e
00000010: 138c f93e c84d 883e bdfc 143f bbde a83e
00000020: 43c5 053e 8580 f03e 1097 d63d 8dcf 5b3e
00000030: 808b 9f3e 7d27 a43e 39fd 043e e3a7 d23e
0.24551614 0.2942724 0.062138047 0.26301527 0.4873968 0.26621842 0.5819815 0.3298243
0.1306353 0.46973053 0.10478032 0.21465893 0.31161118 0.32061377 0.12987222 0.41143712

models.0.model.5.running_var f4 [16]
00000000: 404b 2d3e 60ca d43e 7971 b53d 7167 633e
00000010: 02d2 833f 4222 863e 49c6 d43e 7a80 923e
00000020: 3ada 353e 27f9 d13e 5ecf 203e 0ce2 1b3f
00000030: b18f 813e 8e9a 803f a78d 573e 109d 713e
0.16923237 0.4156065 0.08859534 0.22207429 1.0298464 0.26198012 0.4155753 0.28613645
0.17759028 0.410104 0.15704104 0.60891795 0.2530494 1.0047166 0.2105013 0.23595071

models.0.model.6.weight f4 [16, 16, 5, 5]
00000000: 3cea e33c 9383 5fbc c36d acbc 4a8d f6bc
00000010: 6b1a 193c 140f 0ebd 2489 293d 584f a3bc
00000020: 97dc 05be 4031 e5bd 99dd 4dbd 3612 883d
00000030: 704c bf3d 7a65 123e 12c5 74be 9ee1 fe3d
00000040: d196 823d 6e26 6f3e 91aa 6fbd 8c38 0bbd
00000050: ed3a b33d a27a ef3d f4ca 473c e861 683d
00000060: b9ee 813d dca7 36bd c360 4dbd 248e a13c
00000070: 1531 87bc 4715 003e 8a41 57bd 2c71 d2bc
00000080: fd7e bc3d edea b7bc b376 d3bd 7d2a 6cbd
00000090: 9cd8 f8bc d203 b2bc 4096 2abd 8857 38bd
000000a0: ae3c 8fbd 530e 2a3c 2aa8 3ebc 407f 5bbd
000000b0: 4655 fb3c c682 7cbd af4a 81bd f858 a4bb
000000c0: 39f4 14bd ca9d c13c b105 77bd 1478 4cbd
000000d0: 76da a1bd 6b0f 53bd 46b0 9bbd cc0d a2bd
000000e0: bc85 e43a f598 7cbc 4505 f3ba 72f3 9abd
000000f0: 237d 3bbd 3f13 8fbd 7f83 15be 1195 99bc
00000100: 992d 48bc 8582 a1bd 7c3a 083d b64d 24bc
00000110: cdd1 92bd 8c03 c63d 7d81 15bd f4e8 4d3d
00000120: 94a6 0dbd ae99 5f3d c302 253d a972 043e
00000130: 8da4 18be cba9 d93b bd73 fd3d 9b2a 5d3d
00000140: d92b be3d 8c20 20be 0629 b73d bbde 863c
00000150: 12b7 113d 563e b83d a50b e7bc d614 7abd
00000160: 0a5d a13d 7410 823d 9c11 463d 6d63 cb3c
00000170: 886d 4abd b6f2 083e e242 af3d 5757 f73d
00000180: cc57 63bc 7eee 29bb c2cc 593d 3018 d23d
00000190: 6d3b 50bd 98fd 0bbd e3be 8cbd 25be 15bc
000001a0: 694e aeba 9813 d93c a7e4 623c aba3 2d3d
000001b0: 0be7 fdbc 97fe 443d 1b74 063d 8eeb a53b
000001c0: 4da3 08bd eded 9ebd b731 02bd e18b ca3c
000001d0: 348b 233c 71de 303d 7c1f 183c 672f 8ebd
000001e0: 985e 6a3d 0a97 64bd aadd b9bc 9c23 0abe
000001f0: 15e0 b5bd e4e3 f1bc 5566 81bd 0587 45be
00000200: 534a 653c e9eb 0d3d 69cb 9fba 10fc d6bd
00000210: 55e0 49be 590b 423b f31d 10bd 1bfe 17bd
00000220: be4c b6bd 116d 95bd 689e 853d b06f 8b3c
00000230: 5fc2 c03b 4e65 c3bd 438b 4cbc ba23 0abd
00000240: 5dfe a83c 73a7 8ebd 81d4 2bbd dfc1 ecbb
00000250: 3974 33bd b671 873d 8d8c 243d c04f ad3d
00000260: 9334 01be f648 b83c 1715 9bbc a55d 333e
00000270: 3f72 48bd 5d04 c4bb b9ec b43b 4ac1 6ebb
00000280: 1aa3 8b3d 8d09 02bc 850c 13bd b737 d0bd
00000290: a9e7 0d3d 0204 023e 81ab be3c b89a 86bd
000002a0: a7d6 bbbc 1832 193d a6a3 813d 0976 9f3d
000002b0: 59b4 56bc 7e51 bebd 783a 32bd 4f50 023c
000002c0: 1548 d93b e779 20bd b010 1a3d 7b09 b33d
000002d0: c093 8b3b fdf8 ab3d 9f01 203d bfed 863a
000002e0: 96c8 363d 5870 ac3d 84d1 1cbc 89d1 703b
000002f0: 6ce1 0a3d c741 a13d 2fda b33d 495f 1abc
00000300: 05da 273d f9eb 613d 47c1 043c e58c d63d
00000310: 3bb8 1f3d c3da 083e 5d7f 9f3d 41b0 ed3c
00000320: d5f6 54bd 4678 f3bd 2a83 a6bd c523 8ebd
00000330: 305d 9cbd 25cf 69bd ee66 e9bd da1e 15bd
00000340: a51c a5bd 77ed 1cbe 1b49 153d 4374 98bb
00000350: 939b 97bd c877 86bd 94af 38bd e65e 25bd
00000360: a1e3 81bd fb1f b9bd 9a4a 12be b024 8bbd
00000370: 9418 86bd b73e 0bbe ad44 bdbd 23c1 19be
00000380: 09e3 aebd 3f8f bb3c e695 c43c 5d7c 493d
00000390: a298 21bd 2071 73bd 9691 aabd 0eab f9bb
000003a0: f22c e1bd 6a7e 9d3c 72a8 20be 5cd5 babd
000003b0: 2adc 3c3d f657 e03a 941e aebd 315c adbd
000003c0: f946 dd3b a1ea c73d bf2e d7bb 86fb 0fbc
000003d0: 5640 11bd a16a 73bc e5e7 eeba e2c1 00bd
000003e0: 32b8 86bd 8610 cbbc 2f10 0d3c b14e 01be
000003f0: f44f 08bd 5cad 20bd 8951 e6bc af56 56bc
0.027821653 -0.01364221 -0.021048432 -0.030096669 0.009344677 -0.03468235 0.041390553 -0.019935295
-0.1307243 -0.11191034 -0.05026016 0.066440985 0.09340751 0.14296523 -0.23903301 0.12445377
0.06376422 0.23354504 -0.058512274 -0.033989474 0.087514736 0.11693312 0.012194384 0.056733996
0.06344361 -0.044593677 -0.050141107 0.019721098 -0.016502896 0.12508117 -0.052552737 -0.02568873
0.092039086 -0.022450889 -0.103253745 -0.057657707 -0.030376725 -0.021730337 -0.041647196 -0.04500535
-0.069939956 0.010379392 -0.011636773 -0.053588152 0.03068031 -0.061648153 -0.06313073 -0.0050154887
-0.03636572 0.02363481 -0.060308162 -0.049919203 -0.07902996 -0.051528376 -0.07601981 -0.07912788
0.0017434875 -0.015417327 -0.0018540999 -0.07565965 -0.045773637 -0.06986093 -0.14600943 -0.018747838
-0.012217903 -0.07886223 0.0332589 -0.010028293 -0.071689226 0.09668645 -0.036500443 0.05027099
-0.03458269 0.05458992 0.040285837 0.12934364 -0.14906521 0.0066425554 0.12375591 0.05399571
0.09285707 -0.15637416 0.089433715 0.016463628 0.03557498 0.08996265 -0.028203795 -0.061055027
0.07879074 0.063507944 0.048356637 0.024827683 -0.049420863 0.13373837 0.08557679 0.12077206
-0.013875913 -0.0025929506 0.053173788 0.1025852 -0.050837923 -0.034177393 -0.06872346 -0.009139572
-0.0013298515 0.0264986 0.01384846 0.042392414 -0.030993959 0.04809436 0.03282557 0.0050634807
-0.03335886 -0.077602245 -0.031785693 0.024724903 0.009981919 0.043180887 0.00928485 -0.06942635
0.057219118 -0.055808105 -0.022688705 -0.13490146 -0.08880631 -0.029527612 -0.063183464 -0.19289787
0.013994771 0.03464881 -0.0012191358 -0.10497296 -0.19714482 0.0029608815 -0.03518481 -0.03710757
-0.08901356 -0.072961934 0.06524354 0.01702103 0.005882546 -0.09540807 -0.012484374 -0.033725478
0.020629102 -0.06965532 -0.041950706 -0.0072252597 -0.04381201 0.066134855 0.040173102 0.08462477
-0.12617712 0.022495728 -0.018930955 0.17516191 -0.04893708 -0.0059819655 0.0055213836 -0.0036431127
0.068182185 -0.007936847 -0.03590061 -0.10166877 0.034644756 0.12696841 0.023275139 -0.06572479
-0.022929503 0.03740129 0.063300416 0.07786185 -0.013104522 -0.09292887 -0.04351279 0.007953717
0.0066309073 -0.039178755 0.03761357 0.08742043 0.0042595565 0.083971 0.039064046 0.0010294243
0.044624887 0.08419865 -0.009571437 0.0036745986 0.033906385 0.07873874 0.087818496 -0.009422132
0.040979404 0.05515668 0.008102722 0.10476092 0.038994055 0.13364701 0.077879645 0.029014708
-0.05199321 -0.11888175 -0.08130486 -0.06940416 -0.076349616 -0.057082314 -0.113965854 -0.036406375
-0.08062104 -0.1532496 0.036446672 -0.0046525314 -0.0740272 -0.06565815 -0.04508932 -0.040373705
-0.06342245 -0.09039303 -0.1428627 -0.06794107 -0.06547657 -0.13598143 -0.092416145 -0.15015082
-0.08539397 0.022895453 0.023997258 0.049190868 -0.039452203 -0.059434056 -0.083285496 -0.0076192683
-0.10994901 0.019225318 -0.15689257 -0.09122726 0.046108402 0.0017116058 -0.08501926 -0.0846485
0.0067528454 0.09761549 -0.006566852 -0.008787995 -0.035461746 -0.014856965 -0.0018227069 -0.0314349
-0.06578101 -0.024788152 0.0086098155 -0.12627675 -0.033279374 -0.03922783 -0.02811505 -0.01308219

models.0.model.6.bias f4 [16]
00000000: af7d 4abc 6896 aabd ac26 443c f805 d7bd
00000010: ec1a 58bd cbab 16be 9e29 44be d7c1 35bd
00000020: b1d8 e23c def8 42be bf37 99be 8f45 92bd
00000030: 974e bd3d b413 afbd 1b1f 1abe 96e7 60be
-0.012359067 -0.08329469 0.011972111 -0.10499185 -0.05276005 -0.14713971 -0.191565 -0.044374313
0.027691217 -0.19040248 -0.29925343 -0.071421735 0.092435054 -0.0854868 -0.15050928 -0.21963343

models.0.model.8.weight f4 [16]
00000000: 851d 573f 8e80 7c3f 9351 7f3f 88ec 6d3f
00000010: 0b57 703f 29ed 6c3f 96fe 7a3f b980 513f
00000020: a025 663f 5ffc 633f b884 813f b128 743f
00000030: 00d8 503f 9271 393f 0697 543f f48a 853f
0.8402942 0.9863366 0.9973385 0.92939043 0.9388282 0.9254938 0.9804472 0.8183704
0.8990116 0.8905696 1.0118628 0.9537459 0.8157959 0.7243892 0.83042943 1.043303

models.0.model.8.bias f4 [16]
00000000: 32b9 2a3a 31e4 b93d f1ac fd3c 6b9e e93d
00000010: c41f 893e 7e04 6a3e d959 843d 09fb 8c3e
00000020: 491d 233d 91d7 643e bab2 873e db06 133e
00000030: 2f67 15bc b60e 2b3e e4f7 a93e 497e 0d3e
0.00065125816 0.09076727 0.030966254 0.11407169 0.26782048 0.22853276 0.064624496 0.27535275
0.03982285 0.22347857 0.26503545 0.14358084 -0.009118839 0.1670483 0.33196938 0.13817705

models.0.model.8.running_mean f4 [16]
00000000: d5fa 2a3f fbb5 e73e acfa 3b3f 9651 173f
00000010: b0a5 423f da41 253f 1d41 bc3e 400b f23e
00000020: 1762 4a3f db39 483f fbce 003f 238f 313f
00000030: ef70 163f a486 f93e d3b9 413f ffff cd3e
0.6678899 0.45256028 0.7342937 0.59108865 0.7603407 0.64553607 0.36768427 0.47274208
0.79055923 0.7821328 0.5031583 0.69359034 0.58766073 0.48735535 0.7567417 0.40234372

models.0.model.8.running_var f4 [16]
00000000: 1011 553f f30f e13f dfb3 bd3f 277d d03f
00000010: 1add 5d40 664a 4740 eb12 e43f 37d3 b53f
00000020: c04d be3f c7ae 2440 6314 1040 2f06 0d40
00000030: f92f 6d3f 8ff6 8a3f 36d0 5e40 0308 0240
0.8322916 1.7582992 1.4820517 1.6288193 3.46662 3.113916 1.7818273 1.4205083
1.4867477 2.5731676 2.2512443 2.2035024 0.92651325 1.0856494 3.4814582 2.031739

models.0.model.9.weight f4 [32, 16, 3, 3]
00000000: c117 563d 35af 943b eebb 9c3d 6ffa 8ebd
00000010: 7a70 4fbc fbc1 04be a1fa 90bd 8e07 a8bd
00000020: 5148 66be 0b9c 2ebe 2128 c2bc 358d 21bd
00000030: 742f 06bd 289e d4bb cbe6 ecbd c584 b23d
00000040: d506 aa3b 7f75 3dbb ccde c53c dafc 0bbd
00000050: b23d ad3d 11fa 68bd c4bd 4e3c a4f3 193e
00000060: 0939 d23d 2ce5 663d f5c6 21bc 1581 1d3b
00000070: b09d 15bc 7053 d8bd 3187 6fbd 80e9 6f3c
00000080: ec61 9238 0e26 8dbd 6f14 a3bd 9623 64bd
00000090: 40ef 75bc e256 0bbe ec17 96bd 727a 0ebe
000000a0: 9d76 103c c2d7 ff3c c4ec d2bc 2855 35bd
000000b0: c4fc a239 4a04 61be 3ef3 4bbd a2bc 8f3d
000000c0: 4655 2fbd 2b7c fdbd b83c 15bc 5a34 333d
000000d0: 978f 4e3d da18 263d 0b71 1abd 3d1f 25be
000000e0: 21d9 63bd 9d85 923d b100 3c3d 29b1 cbbc
000000f0: bde0 b63c 61ff 35bd 7738 223d bcb9 1ebe
00000100: fd69 ccbd f1b9 17be 6233 103e 10f2 5cbc
00000110: 0251 0f3e 922b 8c3c 2ffa f23d 6fa2 263e
00000120: e2c1 193d 8b1d cd3d 8b1c e13d b3ab 153d
00000130: 828f 98bc 26b8 db3d 3250 d8bd 9ff0 7f3d
00000140: 786c 103d 1b34 a93b 57f4 4e3c ecc9 7d3c
00000150: 761f a43c 0326 0dbe b96e 6c3d cf27 6bbe
00000160: d514 68be 758e 4cbe 482c d03d 22be 3ebd
00000170: e175 22be aa39 053e 1348 c13d a3d7 bdbd
00000180: 2d67 b73d c9cc 3d3c 8eed 153d aefe 863d
00000190: 3a43 343e 94fc 24be ba82 493c 952d bbbc
000001a0: 6694 22bc 928d 9ebd d7bd 19be 5a98 19be
000001b0: 5ee5 6d3a e47f 263b 10b6 13bd 122d 6d3d
000001c0: b0f4 4fbb 1305 053d a42b f13d 1191 d83d
000001d0: 448f 3a3e 1d35 44bc 70c1 41be d6fe bdbd
000001e0: 9f73 ca3c 1a51 2dbd fa25 c23d f740 da3d
000001f0: 6fe5 283d 613f 8d3c 25ec ae3d 3da1 ba3d
00000200: 2f18 003b 16da 0f3d 0b6f c93c 7b79 533c
00000210: e92f d6bd 31c5 0fbe d4f3 103a 255a bdbb
00000220: a6d9 34be 1b3c e7bd 0a71 e83c 4570 a0bc
00000230: e47a 17bc eb7e 2f3d 7a7f e23d f354 023e
00000240: c645 d6bd d60e a5bd 75f7 8dbc 3b6c 14be
00000250: ee67 003e 1d46 8dbd e4eb f4bd 99b1 5abe
00000260: 07a1 75bd af7b e23c 5829 0ebd c7c7 d43d
00000270: beed 0a3d 30fd cd3d ec6a 923d 814b ba3d
00000280: 9700 ba3d 6f51 1dbc c68c acbc 87e9 f0bc
00000290: e159 ac3d ea55 0abd 3d47 dfbd 7dfb df3c
000002a0: c198 1d3e 7f8e 6d3d cc74 073c 6ffa 83bd
000002b0: 4426 5abd fc7d 2b3c 61cb abbb 002d 6a3c
000002c0: 0e3a a23c 6202 47be 249a 77bd bec2 58bd
000002d0: 6382 aabd eae8 8fbe 82e0 31be 53df 77bc
000002e0: bf51 0dbd d66a 7e3d ec8d 45bd 885c 5abd
000002f0: e14c 043c 13f5 59bd 7c95 9b3d 77e3 c8bd
00000300: f436 7dbc 3bae e8bc e289 003d 33de 323d
00000310: 2592 563c 5700 66bc a5a4 a33d fc70 9a3b
00000320: 6142 41bd 874e a13d 50da c23d 22c4 84bd
00000330: 7ec6 1cbc cf6a 613d dd54 213d 5894 96bd
00000340: 3b78 9cbc 5600 2bbe 5c1d 5b3c 8624 dbbd
00000350: 88ef 19be 04b9 25be c105 12bd 5547 04bc
00000360: 7d60 aa3d f9d9 c7bb 0ebd da3d 1922 e7bd
00000370: b5bc 103e 3b77 963c 3ee3 0ebe 1dc7 613d
00000380: fac5 c33a b867 c5bd ef0d aa3b 173e 1cbe
00000390: 8d6a c3bd ee96 19be d1f7 3dbe 7c0b 88bd
000003a0: a3e5 fbbd 81cd 1abe a53e af3d fc7e d53c
000003b0: a305 723d 559a fdbb 8029 923d 8e71 d73d
000003c0: 5dae d2bc 87e4 30bd 8cdd 863d a616 01be
000003d0: 0e9f c43c 8f10 56be 150a 90bd d092 08be
000003e0: e404 1bbd 3f57 59be c365 43be 2bf0 aabb
000003f0: c973 a0bd f410 083e 4871 b33c c1a3 a2bc
0.052268747 0.004537488 0.07653032 -0.0698136 -0.012661094 -0.12964623 -0.07079054 -0.08204566
-0.22488524 -0.17051713 -0.023700776 -0.039441306 -0.0327601 -0.0064885803 -0.11567458 0.0871673
0.0051888027 -0.0028909144 0.02415409 -0.034176685 0.08459033 -0.056879107 0.012618486 0.15034348
0.10264785 0.0563709 -0.009874095 0.0024033238 -0.009131834 -0.105627894 -0.058478538 0.014643073
6.980062e-05 -0.06892024 -0.07962882 -0.055698 -0.015010655 -0.13607362 -0.073287815 -0.13913897
0.008817342 0.031230811 -0.025747664 -0.044270664 0.00031087373 -0.21974292 -0.04979252 0.07018401
-0.042805932 -0.12377199 -0.009108715 0.0437511 0.050429907 0.040551044 -0.037705462 -0.16125198
-0.055626992 0.07154391 0.045899097 -0.02486475 0.02232396 -0.044433 0.03960463 -0.1550054
-0.09981153 -0.14817025 0.14082101 -0.013485447 0.13995746 0.01711062 0.11864125 0.16272901
0.037538417 0.100154005 0.10991772 0.0365407 -0.018623117 0.10728483 -0.10562171 0.062485334
0.035259694 0.005163682 0.012631497 0.015490036 0.020034533 -0.13784032 0.05772278 -0.22964405
-0.22664197 -0.19976218 0.10164696 -0.046568044 -0.1586528 0.13010278 0.09437575 -0.09269645
0.08955226 0.011584469 0.036603503 0.06591545 0.1760377 -0.16111976 0.012299234 -0.022848884
-0.009923076 -0.07741846 -0.15013824 -0.14999524 0.0009075011 0.0025405819 -0.0360623 0.05790431
-0.0031731538 0.032475542 0.11775902 0.10574544 0.18218714 -0.011975554 -0.18921447 -0.09277122
0.024713336 -0.042313673 0.094799 0.10656922 0.04123443 0.017242135 0.08541135 0.09112785
0.0019545665 0.035120092 0.024589082 0.012907381 -0.10458357 -0.14040066 0.0005529497 -0.0057785683
-0.17661151 -0.11290761 0.028374214 -0.019584784 -0.009245608 0.042845648 0.110594705 0.12727718
-0.10462527 -0.0805947 -0.01732991 -0.14494412 0.12539646 -0.06898139 -0.11959055 -0.2135681
-0.05996802 0.027646868 -0.034707397 0.10389667 0.033918135 0.10058057 0.071493 0.090964325
0.09082144 -0.009601935 -0.02106322 -0.02940823 0.084155805 -0.03377334 -0.109022595 0.027341599
0.15390302 0.057997223 0.008267593 -0.06444251 -0.05325915 0.010467049 -0.0052427505 0.014292955
0.019803073 -0.19434503 -0.060449734 -0.052920096 -0.083256505 -0.28107387 -0.17370799 -0.015128928
-0.034501787 0.062113605 -0.04823105 -0.0533109 0.00807497 -0.053212237 0.07596871 -0.098090105
-0.015454996 -0.028403392 0.031381495 0.043668937 0.013096367 -0.014038167 0.07990388 0.004713176
-0.047182444 0.07876306 0.09514296 -0.06482722 -0.009568809 0.0550335 0.039387573 -0.07352513
-0.0191003 -0.16699347 0.013373699 -0.10700326 -0.1503278 -0.16183859 -0.03565002 -0.0080736475
0.08319185 -0.0060989824 0.106805906 -0.112858005 0.14134486 0.0183674 -0.13953874 0.05512153
0.0014936321 -0.096389234 0.0051896493 -0.1525806 -0.09541807 -0.14998981 -0.18551566 -0.066428155
-0.12299659 -0.15117456 0.0855687 0.026061527 0.059087407 -0.007739345 0.07136822 0.10519706
-0.025717909 -0.04318669 0.065852255 -0.12606296 0.024001624 -0.20904754 -0.07033173 -0.13337255
-0.03784646 -0.21224688 -0.19081788 -0.0052166185 -0.07834584 0.13287717 0.021904603 -0.019853475

models.0.model.9.bias f4 [32]
00000000: 0cea dabb 0eea 0fbe e9bb 49be 4bbb 073e
00000010: ce8d 6ebc e308 14be 117a 673e e8b4 20be
00000020: 1084 84bd ab59 43bd e258 b7bc f504 8dbe
00000030: 6ec7 73b9 1d15 e0bc 2663 40be 2bcd ef3d
00000040: b3f8 2dbd 3fdc debc 9d6f 6abd db4b 71be
00000050: 5ed2 5ebd 92df 92be 38de 63be fa74 06bd
00000060: e08c 99bc 660a c0ba e2f0 a0be 59fa 9ebd
00000070: e274 20be c918 cb3c 87dd 5ebe 3676 81bd
-0.0066807326 -0.14054129 -0.19700588 0.1325504 -0.014560176 -0.14456515 0.22605158 -0.1569401
-0.064705014 -0.047692936 -0.02238125 -0.27542844 -0.00023248579 -0.027353818 -0.18787822 0.117090546
-0.042473506 -0.02720463 -0.05723535 -0.23564093 -0.05439984 -0.28686196 -0.22252738 -0.0328264
-0.018743932 -0.0014651536 -0.3143378 -0.07762594 -0.15669587 0.024792092 -0.21764193 -0.06321375

models.0.model.11.weight f4 [32]
00000000: 1070 273f 399a 413f 4f0d 3c3f ef25 233f
00000010: 1773 1d3f 8c09 403f 0512 293f 71be 323f
00000020: f542 2f3f 1b51 213f a240 303f 98ca 1b3f
00000030: 74b9 233f 76b8 2f3f a464 353f c6e0 243f
00000040: fe40 2f3f 79c3 163f 33fa 183f d46b 213f
00000050: 1a73 303f 0980 0e3f 9dcc 083f 37a5 533f
00000060: 6edc 2e3f 96a2 0e3f d5a4 263f 22a7 263f
00000070: 1196 363f 7fb5 243f 1536 263f 4b86 273f
0.6540537 0.7562595 0.7345781 0.6372976 0.6150374 0.7501457 0.6604312 0.6982184
0.68461543 0.6301438 0.6884862 0.6085601 0.63954854 0.6864084 0.7085669 0.6440548
0.68458545 0.5889202 0.59756774 0.6305516 0.6892563 0.55664116 0.53437215 0.8267397
0.683051 0.55716836 0.65095264 0.65098774 0.71322733 0.6433944 0.6492627 0.6543929

models.0.model.11.bias f4 [32]
00000000: 71a8 813d a160 d73d cf36 6d3d 2fb2 0f3d
00000010: e32b a93d a812 a03d b742 ae3d f5cd 013d
00000020: ad84 673c 1e9a ca3c 8cb8 9d3d e0f2 d03d
00000030: 43eb 713d 3ccd 333d 610a cc3d 947a 863d
00000040: 6d3e 8d3d 33a0 8a3d 5164 453d e4d6 e93d
00000050: 957a b93d c15f 7e3d f6ec 713d 409d 3b3d
00000060: 82ae 9c3d 3697 203d 3037 e43d d983 c13d
00000070: 110f 9e3d 94ba 963c 9183 933c dade c73d
0.06330956 0.105164774 0.057913598 0.03508204 0.08260324 0.078160584 0.085088186 0.031690557
0.014130753 0.024731692 0.07701215 0.10202575 0.059062254 0.0438969 0.09962917 0.06566349
0.068966724 0.06768837 0.048191372 0.1141794 0.09056584 0.062103037 0.059063874 0.045804262
0.07650472 0.039206706 0.11143339 0.09448976 0.077177174 0.018399514 0.018007072 0.097593024

models.0.model.11.running_mean f4 [32]
00000000: f1ea 893e 9a9e 073e 3586 213e 5f8b a43e
00000010: ac80 9c3e 3f30 563e 4234 093f 3269 003e
00000020: 5aa0 ff3d a3ce 533e 7f37 673e f1b8 363e
00000030: b07b 903e 834f 523e 3d1f 393e 142f 9b3e
00000040: e9d4 7f3e 144b 823e 9342 553e c456 0e3e
00000050: b2ca 263e 5d9e f23d 2a8d da3d 0c77 1f3e
00000060: e1c5 7b3e 2e5a 603e 51ce 5f3e 06ef 623e
00000070: a7f7 333e fb54 6e3e 799d f93d eefa a43e
0.2693706 0.13244095 0.15773852 0.32137582 0.3056692 0.20916842 0.53595364 0.12540129
0.124817565 0.20684294 0.22579764 0.17843987 0.28219366 0.20538144 0.18078323 0.30309355
0.24983563 0.25447905 0.20826177 0.13900286 0.1628826 0.11846612 0.10671456 0.15572757
0.24587204 0.21909401 0.21856047 0.22161493 0.1757494 0.23274605 0.12188239 0.32222694

models.0.model.11.running_var f4 [32]
00000000: 484d a23e 57b7 633e dda4 a53e 5d6a 8d3e
00000010: 03a3 a63e a885 8b3e 35a4 c33e cc88 553e
00000020: 8774 b83d 8ed9 823e c3c8 2a3e 0120 513e
00000030: 9b74 383e 4e2f 153e d826 6a3e 0c61 6d3e
00000040: 0d50 503e 71f7 3d3e 1751 093e e8e3 4f3e
00000050: c14c 473e a87e 013e 6914 ef3d a8ed 253e
00000060: 1a40 713e 0c7c 8c3e 50f6 8b3e 4ca9 903e
00000070: 0aac 593e de15 2e3e 6760 f63d 0ee6 963e
0.31699586 0.22237907 0.32352343 0.2762021 0.32546243 0.2725041 0.38211218 0.20852965
0.09006601 0.25556606 0.16678147 0.20422365 0.18013231 0.14568827 0.2286638 0.23181552
0.20343037 0.18551423 0.1340984 0.20301783 0.19462873 0.12645972 0.11673815 0.1620394
0.23559609 0.2743839 0.2733636 0.28254163 0.21257034 0.17000529 0.12030106 0.29472393

models.0.model.14.weight f4 [10, 6272]
00000000: 4595 20bb 4ead 683c a8b8 a2bc 9c07 813c
00000010: 3a74 313d efd6 09bd c1a4 adbd 4531 75bc
00000020: 36a9 833d 8cfc 6abd 998b c13d 6c95 02bc
00000030: bdd5 3a3d e728 9d3c b8a1 213d 36da ad3c
00000040: a88a cfbc 780a 3bbd 1b18 f2bc a162 babc
00000050: 3f23 e8bd 94d8 1ebc 4685 c2bc bf2e 90bb
00000060: c115 b53d 5baa 11bb 29cf 7c3d f297 f0bb
00000070: 7c17 8d3c d26c a73c 6277 993c d34f 203d
00000080: bf67 33bd 55d2 843d 5e27 213d ccaa e63b
00000090: b3b5 d43c 93c0 0f3b 414c 533d 3c24 923d
000000a0: 308c 473b 8383 553d 85bc 803c ba64 b8bc
000000b0: 72b1 c03d b6c4 483d 315a 8c3c 438e 06bd
000000c0: 48aa 9c3d c520 02b9 6c15 263d aedb 853b
000000d0: ead3 af3d e60a f13d b8e1 3c3d 5fb7 023e
000000e0: 333e 3d3d 167c f2bc 13bf a03d 5789 8e3d
000000f0: f64a 16bd a312 72bc 75f0 af3c 3bca 16bc
00000100: 31ea bc3c 3d5b f6ba eb2f 593c 8109 b13c
00000110: fb91 363d f9ab 873c 6381 82bc a2ea c23c
00000120: 39f6 e73a f3eb f9bc e02f b6bd 3807 7abd
00000130: 01b3 dfbc 3fb4 10be 17fd c5bd 2e95 083d
00000140: 1ecc cbbc c8ae 8dbd 03d2 eebc 1c87 33bc
00000150: e8d7 04bd 13da 573d 8ff3 bd3c b650 e3bd
00000160: c1ec 8fbd 0c59 d0bd 3dde f1bc 3dd8 c0bd
00000170: f92a 2f3b e093 0ebe d1f1 43be 31ec 0ebe
00000180: 4694 33be 2f71 b4bd dfb2 8bbd 80af 8dbd
00000190: e016 65bd b8ed 173c a667 18bd ecf4 3b3d
000001a0: 8bf8 413c cbae 84bb 5897 933c c11c 5abe
000001b0: 10cd 37be 676e 93bc ac0d 7bbd b67f 733a
000001c0: f7eb c13c d0db 11bd b009 5b3d c684 aaba
000001d0: 14e0 a63c 391c 453c 9890 50bc 7f60 903c
000001e0: c1be 12bd 77c0 4ebd 147e 25bd 13a8 6cbd
000001f0: 9dda b63c 4dfa 043c fbae 283d 4762 003c
00000200: 918c 963b cc3e 803c 8a18 c93c d514 883d
00000210: a5b3 1e3d 0dee 353d 7cf7 abbd 1297 b9bb
00000220: 2040 ec3a 0e29 df3c c800 2dbd 7323 50bc
00000230: fb20 363c bfee 7b3c 2603 3a3d aaa8 333d
00000240: 99e4 bf3c b556 373d 5e6f d73c 7981 cf3d
00000250: a600 dd3c 7d50 933d 5b91 4039 1960 9c3d
00000260: c073 fd3d 4757 473d e5e4 c7bd d295 00bc
00000270: 1bd9 cbbc 53e2 6c3d 1662 a83c 90d2 d73b
00000280: eb79 433d 90f1 663d bedc 973d 5f83 043e
00000290: eabf 213d ea38 0f3d 633c 1f3d 662d ac3c
000002a0: 9ca0 9cbc ff92 c03c 68fd 843d e73a 1e3c
000002b0: 16b8 14bc 47a8 d4bc fe4b 803c ef7a c73c
000002c0: 5f56 493d 779b 053e dcd6 ef3c 4305 803d
000002d0: 3af0 223e e172 af3d 0b0d 50bc 58b8 b83b
000002e0: f4c9 cc3d 3128 0d3d a840 1e3d 7fff 0a3e
000002f0: aad0 e2bb bdca ce3c 3000 8abd 5326 78bd
00000300: e1c7 a13b 2de4 72bc 3787 a73d 08f5 c2bb
00000310: db20 593d 2561 3b3d a486 a93b 685b 083d
00000320: a009 95bb 2c03 b8bc a4d2 853c 0a99 033c
00000330: 1b4a b13d 4636 893c 31d8 923c 57cc c33d
00000340: 202d f83c 936f 853d 95a2 fe3c e0d9 f93c
00000350: 40f6 f1bc af8d c2bd 9879 5bbd ab7f a7bc
00000360: cdb9 fbbd b8b8 3bbd f10c 0d3d 115e 3fbd
00000370: f3b9 b53d 43e7 a43d d9fd d13c 1082 9f3c
00000380: b579 623c 58fe e43a 6e53 713c d352 15bc
00000390: e2b8 22be 98aa 7bbd 81e2 d3bd 3a42 a53c
000003a0: 9740 94b9 612f 3cbd 32e6 b0bc 3861 d83c
000003b0: 4474 d93c 6d28 fc3c 9577 0e3c 0c2c 143d
000003c0: b924 423d 4aa7 c8bd 33ca 81bd 3e59 e5bd
000003d0: b9c1 bdbc 9007 c6ba 22e6 253d af8d a2bd
000003e0: 3495 31bd f47c d7bc 362a 8f3d 422a f23d
000003f0: 6347 893d 92b8 613c 3c19 903a a8ec 2c3d
-0.0024503034 0.014201475 -0.019863442 0.015750699 0.043323733 -0.033652242 -0.0847869 -0.01496536
0.06428759 -0.057369754 0.09450454 -0.007970195 0.045613993 0.019184543 0.039460868 0.021222215
-0.025334671 -0.04566428 -0.02955251 -0.022752108 -0.11334848 -0.009695191 -0.02374519 -0.004400104
0.0884204 -0.0022226784 0.061721 -0.007342332 0.017223112 0.020437632 0.018733684 0.039138626
-0.04380011 0.0648543 0.039344184 0.0070394035 0.025965547 0.0021934852 0.051586393 0.071358174
0.0030448548 0.052127372 0.015714893 -0.022508968 0.09408845 0.049015723 0.01713285 -0.032850515
0.07649666 -0.00012409974 0.040547773 0.0040850258 0.08585341 0.11769657 0.0461137 0.12765263
0.046201896 -0.029600184 0.078489445 0.06959789 -0.036692582 -0.014774951 0.021476964 -0.009203489
0.02306089 -0.0018795502 0.013256053 0.021610977 0.04457281 0.016561495 -0.015930837 0.023793522
0.0017697281 -0.030508017 -0.0889585 -0.06104204 -0.027307035 -0.14131258 -0.09667414 0.033345394
-0.024877604 -0.069181025 -0.029152876 -0.010957506 -0.032432467 0.052698206 0.023187427 -0.11099379
-0.07027579 -0.10173234 -0.029524917 -0.09416244 0.0026728495 -0.13923597 -0.19135214 -0.13957287
-0.1753703 -0.088106506 -0.06821226 -0.069182396 -0.05593002 0.009272985 -0.03720822 0.045887873
0.011839042 -0.0040491573 0.018016502 -0.21300031 -0.17949319 -0.01799698 -0.061292335 0.0009288745
0.023672087 -0.03561002 0.053476036 -0.001300954 0.02037052 0.012030655 -0.012729786 0.017624138
-0.03582645 -0.050476518 -0.04040344 -0.057777476 0.02232104 0.008116317 0.0411825 0.007835931
0.0045943935 0.015654944 0.024547834 0.066445984 0.03874554 0.044416476 -0.08396813 -0.005663761
0.0018024482 0.027241256 -0.042237073 -0.012703764 0.011116262 0.015376746 0.04541316 0.043862022
0.023424434 0.044760425 0.026298221 0.10132117 0.026977848 0.07193086 0.00018364696 0.07635517
0.12375593 0.04866722 -0.09760455 -0.00784822 -0.024883797 0.057833027 0.020554584 0.0065863803
0.047723692 0.056382716 0.0741515 0.12940739 0.039489664 0.034966387 0.03887595 0.021017741
-0.019119553 0.023507593 0.06493646 0.009657598 -0.009077093 -0.025959147 0.015661236 0.024350611
0.049154636 0.13047586 0.029277258 0.062510036 0.15911952 0.08566833 -0.012698422 0.00563721
0.09999457 0.034462158 0.03863588 0.13574027 -0.0069218474 0.025243158 -0.06738317 -0.060583424
0.0049371575 -0.014824909 0.08180087 -0.00594962 0.05300985 0.04574694 0.005173521 0.033290297
-0.0045482665 -0.02246245 0.016335793 0.008032093 0.086567126 0.016749512 0.017925354 0.09560459
0.030294955 0.06515422 0.031083385 0.030499399 -0.029536366 -0.0949968 -0.053582758 -0.020446619
-0.12291298 -0.04583046 0.03443617 -0.046720568 0.088733576 0.08051922 0.02563374 0.019471198
0.0138229625 0.001747082 0.014729364 -0.009113985 -0.1589084 -0.061441988 -0.103459366 0.02017318
-0.00028276883 -0.04594362 -0.02159414 0.026413545 0.026544698 0.030780995 0.008695503 0.03617482
0.047398303 -0.09797533 -0.063373946 -0.11198662 -0.023163663 -0.0015108455 0.040502675 -0.0793718
-0.04335518 -0.0263047 0.06990473 0.11824466 0.06703069 0.013776915 0.0010993849 0.04221788

models.0.model.14.bias f4 [10]
00000000: 8cd5 5cbd 3a32 f13c d5cb de3b 63e3 a83b
00000010: 6bc6 893b 6807 0c3d cc6b 09bd cc20 033d
00000020: 1b3c 9fbc 940e 50bc
-0.05391459 0.029442895 0.006799201 0.0051540597 0.0042045615 0.03418675 -0.03355007 0.0320137
-0.01943784 -0.012698788

models.1.model.0.weight f4 [16, 1, 3, 3]
00000000: 3c10 80be c097 78be 0167 2abe 7a01 49be
00000010: b5a7 213e 3392 cabe 3c0d a03d 5d31 38bd
00000020: 3286 4ebe 82e1 ac3d de72 a5be e59b a83d
00000030: 86cb 89bd 7449 b43d 6737 24be d0eb bb3e
00000040: 6934 833e 8654 2d3d 3243 d23e dfe7 943e
00000050: 8516 493e ce14 913d 3ef3 dfbd 97ca ff3d
00000060: e08b 183d 38af 1b3e 673b 2abe 36f1 a93e
00000070: 2e82 1cbd 821c 53be c6bf 83be 0204 793e
00000080: c8c0 47be 89fb 45be a6e8 36bb ff77 1fbb
00000090: a0e4 2f3d 98f0 49bd c1c7 973e 174e adbe
000000a0: d005 dbbd ff53 433e c339 4e3e 968f 83be
000000b0: 48be 573e 1b6c f5bd 3966 adbe 27fe 99bd
000000c0: a5c0 663e 32e9 a33e a076 38bd 23d7 78be
000000d0: 4da0 cabd da3e 963e d958 76be 72cc abbe
000000e0: 7e9a acbe 5d08 a53e c611 b23d 3a55 753d
000000f0: b763 963e 59a7 d63d 4560 423d e49d 68be
00000100: fbc3 953d c72e b23c 471c 8dbe ab46 833e
00000110: fcaf b2bd 3b8b 303e 165e 603e 5b9f 7fbe
00000120: 6896 85be 4474 e53d 2bd2 f83d f545 44be
00000130: 749f 373e a2c3 1e3e 92f9 09be 1f84 a23e
00000140: 6dd9 c73c 28c3 b93e 4547 253e 499a 1cbe
00000150: 0913 b8bd a3d6 c6bd 698e d3bd b7d5 05bd
00000160: 4588 1b3e 9151 c3be ed46 22be af00 413e
00000170: facc 1c3e 70e3 88bd 613c 123e 0678 80be
00000180: 80ff 943e ac8e 113e e020 a3bd 9a1f 293d
00000190: a141 183e 469c 9a3e 52da 4dbe 4cd9 323e
000001a0: 94b7 9cbe e16c af3e 87c8 aabe b70d 09bd
000001b0: 22e1 3a3e f8e3 4dbe 891e d23c 0b42 943d
000001c0: c8fa 8ebe 72d3 f73d 38fd f43b c6ca 8d3e
000001d0: c98d 44bd dce3 2cbe 723b 433e 3ac1 ef3b
000001e0: 72a7 5cbe 3ccd 9bbe 3259 72be a69a 3d3d
000001f0: 20ce 55be fa0a 2f3e 4443 0dbe 0f47 333e
00000200: 7d33 2bbe 5fec 773e 48f8 e23c 757d 85be
00000210: a7af e73c 06e4 85be 1ddf 6dbc 7cb9 4bbe
00000220: bc89 f03d 2126 03be e763 cf3d 5607 043c
00000230: 56a7 7a3e fe56 af3d 2095 99be fe79 8f3e
-0.25012386 -0.24276638 -0.16640855 -0.1962947 0.15786631 -0.39564666 0.07815024 -0.04496895
-0.20168379 0.0844145 -0.323142 0.082328595 -0.06728272 0.088030726 -0.1603676 0.36703348
0.25625923 0.042316936 0.4106689 0.29083154 0.19637497 0.07084046 -0.10935067 0.12489813
0.03724277 0.1520356 -0.16624223 0.33191842 -0.038210087 -0.20616344 -0.2573225 0.24317935
-0.19507134 -0.19334234 -0.0027909665 -0.0024332998 0.042942643 -0.049301714 0.29644588 -0.3384864
-0.10694468 0.1907501 0.20139222 -0.25695485 0.2106868 -0.1198351 -0.33867052 -0.07519179
0.22534426 0.3201385 -0.045035005 -0.24300818 -0.09893856 0.29344827 -0.2405733 -0.33554417
-0.33711618 0.32232943 0.08694796 0.05989573 0.2937295 0.10481138 0.04745509 -0.2271648
0.07312771 0.02175082 -0.27560636 0.25639853 -0.087249726 0.17240612 0.21910891 -0.24963133
-0.26091313 0.112038165 0.12149461 -0.19167311 0.1793192 0.15504315 -0.1347411 0.31741425
0.024395669 0.36281705 0.16140468 -0.1529323 -0.08988006 -0.097089075 -0.10329897 -0.032674517
0.15188701 -0.38148168 -0.15847369 0.18847917 0.15312567 -0.06684005 0.14280845 -0.2509157
0.2910118 0.14214581 -0.07965255 0.041289903 0.14868785 0.30197352 -0.20102814 0.17465705
-0.3060881 0.34262756 -0.33356115 -0.033460345 0.18249944 -0.20106494 0.025649326 0.07239159
-0.27925706 0.12100877 0.007476475 0.27693766 -0.04798678 -0.16883796 0.19065645 0.0073167356
-0.2154825 -0.3043002 -0.23666838 0.046290062 -0.20879412 0.17094031 -0.13795191 0.17507575
-0.1671886 0.24211262 0.02770628 -0.2607228 0.028282 -0.2615053 -0.014518526 -0.19894975
0.11745021 -0.12807514 0.10126477 0.00805839 0.24477896 0.08561514 -0.29996586 0.2802276

models.1.model.0.bias f4 [16]
00000000: b5e4 513e 8e60 253e 77d9 003d 61ca f5bc
00000010: c7c2 5abe 6404 023d 17df 093e 9653 dd3d
00000020: a01f 8ebe 979e 8e3d 069c 4ebe 024d 38be
00000030: 6eaf 4bbe c4d1 713d 75cd 223d 1146 1fbe
0.20497401 0.16150114 0.03145739 -0.030003728 -0.21363364 0.03174247 0.13464008 0.108069584
-0.27758503 0.06963842 -0.20176706 -0.17998126 -0.1989114 0.05903794 0.03974672 -0.15554072

models.1.model.2.weight f4 [16]
00000000: a872 293f 3f07 5a3f b55a 423f c477 803f
00000010: f156 6f3f f324 6e3f c2f0 873f af53 793f
00000020: e5cf 623f 3a20 6b3f 2fca 743f a3cf 7a3f
00000030: ddab 933f e96a 693f 1e0a 653f f938 633f
0.66190577 0.85167307 0.7591966 1.003655 0.9349204 0.9302513 1.0620348 0.97393316
0.8859847 0.9184605 0.9562101 0.9797308 1.1536824 0.91178757 0.8946856 0.8875881

models.1.model.2.bias f4 [16]
00000000: 3d66 7bbd a519 103e 3399 6b3d d2e7 fc3d
00000010: 22be 173e f248 833d 7c28 dcbb 70cd 8bbd
00000020: 606c 883d c15c 0c3e 686a fa3d cbc1 453e
00000030: ca7c 023c 4c73 793d 9db8 59bb bceb 6f3e
-0.0613768 0.14072283 0.05751915 0.12348904 0.14818624 0.064103976 -0.0067186933 -0.068262935
0.06661296 0.13707258 0.12227327 0.19312207 0.007964322 0.06090097 -0.003322161 0.2342977

models.1.model.2.running_mean f4 [16]
00000000: bbee 1a3e aa75 583e 03b5 283e 55c3 983b
00000010: 8d94 2d3c 4ad1 333d 1617 213e bd68 d93d
00000020: f57b 953c 0052 aa3d a31f a33c b2d0 233c
00000030: d457 cc3a b3ce 3f3d bdbe 173d ac79 433c
0.15130131 0.21138635 0.164753 0.0046619573 0.010594499 0.043900765 0.15731463 0.1061568
0.018247584 0.083164215 0.019912547 0.009998487 0.001559014 0.046827983 0.037047137 0.011930864

models.1.model.2.running_var f4 [16]
00000000: edfd fe3b 8bb6 b23c 1d93 9f3d 92c6 2b3a
00000010: 6094 123b efdd 793b e584 953c f645 973b
00000020: ef73 a83b c32f f73b 0540 893b e005 023b
00000030: cc76 0a39 06cf 533a f288 b63a 8423 d53a
0.007781735 0.021815559 0.077917315 0.00065527216 0.002236627 0.0038126667 0.018251846 0.0046164943
0.0051407735 0.0075435354 0.00418854 0.0019839928 0.00013204961 0.000807986 0.0013926311 0.0016261195

models.1.model.3.weight f4 [16, 16, 3, 3]
00000000: a724 b0bd 7b52 873d c22d 0f3c e368 04be
00000010: 92eb 0fbd 9dd5 40bd b0a2 b5bd e87e 713c
00000020: ea93 45bb ba65 c13c b876 8b3d 7b15 713d
00000030: c146 683d f572 8ebc 3856 2a3d c401 acbc
00000040: cad5 abbd 6442 8fbd d716 653c 5fe7 cb3a
00000050: b361 ccbb 92b7 30bd f616 1b3d 431a 8a3d
00000060: 1624 4a3d 9557 1e3d 5045 88bc 3281 eabd
00000070: 6694 5fbd fde1 abbd 7605 e63c 9d6d 8d3d
00000080: 0959 51bd 4ce5 4e3d d063 613d 2ee5 753b
00000090: bf7c dabb 3c4b bc3d b23c 33bd 34de c9bc
000000a0: f875 493d bd4a 34be 368d 03bd 763b 42be
000000b0: 814d aebd d3ec 0cbe dcb4 16be 245b 15be
000000c0: 5819 113d fa37 44bd e7ba 17be 3817 d0bd
000000d0: c7bc eabd 1eea 80be fa8b d6bd bb65 dabd
000000e0: 3098 cdbd dd34 81bd 0816 b2bc 0365 a1ba
000000f0: 8fde 43bd 76b7 a8bd d3bb c7bd 77e0 003d
00000100: e7bb e73d b7ca 803d d4ab 0a3e eab3 123c
00000110: f2e9 f73b 6d93 513c a7fc 2c3d 30c8 7cbd
00000120: 149c 993d 23f5 943d 7627 ec3d ca76 103e
00000130: f206 1c3d 9f08 4cbd 1f2b 943d 10f2 8cbd
00000140: f2d4 0ebe 11dc 02bd 3742 493d 4a69 5dbb
00000150: 0bdf a8bd a609 ba39 1dee c83d 5bfc 623d
00000160: 7dd6 eb3d 91b1 2d3d 77cb 033d 4638 513d
00000170: 23b1 193e a175 1d3e dce7 2c3e 9ac5 ae3d
00000180: e306 003e 1cfa 1a3d 5717 573d 84b8 353c
00000190: e88c 7c3c d09b 823d 80d9 10bc ed4a 6f3c
000001a0: 2f53 ffbc 1c4b b6bc 794a 0ebd 9af6 c43c
000001b0: fdcc 09be 72b3 113d 8511 8fbd b65c a8bd
000001c0: 1bfb 32be c61c ba3c 8705 72be 0e5d 95bd
000001d0: 6092 a8bd d179 b93d cf78 6b3c 2798 8cbd
000001e0: f40f 0fbe f971 f0bd 366b 2ebd a624 ecbd
000001f0: 6de3 31bd 93bd 8dbc 28b9 403e 5af5 903d
00000200: 831e ea3b f32e fe3d 26d5 033e 95ff 823d
00000210: 3784 f63d 9c67 26bd d95e a03d 5c1a 83bb
00000220: c5b1 c7bd fcbc 363d 89f8 d53d 3e2d 9a3c
00000230: 5aec 373d 8de2 873d 3cd6 0c3c d867 50be
00000240: 0124 723d fa5a 1dbd 2405 94ba 84f1 68bc
00000250: be95 50bd 8f86 f83d e188 993d 24a6 823d
00000260: e609 14bc 74b5 cb3d b7d5 56bd 5d46 b93c
00000270: 2098 a6bd a08d 563b 9902 b2bd 40bc 7a3d
00000280: 1324 743c d3ab 8b3d 9b6d 333d c34d 11bc
00000290: 5ef7 8b3c 7481 eebd 0511 bbbc 6e4f 98bd
000002a0: a880 6dbd 89bd a1bd 99b2 a9bd d6ec cb3d
000002b0: bcde 51bd e3b6 febb 0eab bdbd 96a4 c93b
000002c0: f5fc 9aba 51d9 0abe 5295 01be 4fd5 813c
000002d0: 292a 153e 19e4 553d b627 eebd c17d ddba
000002e0: c1db 48bb fdd4 1ebe 5bf1 01be 6258 f0bd
000002f0: 6ff4 ee3c 71ae 033d bd3b a43d 47b4 d4bd
00000300: 7a58 ebba 8d59 0ebd 4ba2 63bd ef54 38be
00000310: 3ea5 04be cb15 12bc 2485 24bd 4a3f 11bc
00000320: 1b3d d53c 1e17 1d3c d7c7 843b 0b27 6bbd
00000330: 9a57 9a3d 27dc 2ebd 6a38 683c aa64 383c
00000340: 6682 293e 53dc c83d 18c8 653d 26c2 34bd
00000350: 4485 a43d e767 9fbc 62a8 3e3e 51d4 fabd
00000360: 7524 413d 6d2c e33d d8bb 66bd 28db 333d
00000370: 8a91 753c e7af 06be 0aa4 21be 554e 6c3d
00000380: 6f3e 0dbe 3387 09bd 06a9 e4bd f9cc e33d
00000390: 68f7 acbd 697d 78bd 2233 a33d 7448 86bd
000003a0: e751 95bc aff6 4f3d 9ed2 0fbe 56e3 7bbc
000003b0: 2138 623d 60f3 053d 1afb ab3d e88a 4cbd
000003c0: ed7b 053e 0320 313e 8bc7 b43d 2f96 efbd
000003d0: f56e 7bbd aa42 18be 6b53 7abd 6298 273e
000003e0: d3bd f8bc 81eb 543c 78f4 733d 9c8a 2d3e
000003f0: d792 6f3d c413 293d 612f ae3d 6867 c73d
-0.08600741 0.06607529 0.008738937 -0.12930636 -0.035136767 -0.047078717 -0.08868921 0.014739729
-0.0030147978 0.023608077 0.06809753 0.058858376 0.0567081 -0.0173888 0.04158613 -0.020996936
-0.083903864 -0.06995085 0.013982496 0.0015556625 -0.0062372326 -0.043143816 0.037863694 0.0674329
0.04935082 0.038657743 -0.016634613 -0.11450423 -0.054584883 -0.08392713 0.028078776 0.06905673
-0.0511103 0.050511643 0.05502683 0.0037520635 -0.006667703 0.09194037 -0.043759055 -0.024642088
0.04918477 -0.17606635 -0.03211709 -0.18967995 -0.085108764 -0.13762216 -0.1471743 -0.14585549
0.03542456 -0.047904946 -0.14817391 -0.101606786 -0.11461788 -0.25178617 -0.10475917 -0.10663935
-0.10038793 -0.06308911 -0.021739021 -0.0012313429 -0.04781967 -0.082381174 -0.097526215 0.031464066
0.113151364 0.06288665 0.1354211 0.008954028 0.0075657303 0.012791497 0.042233136 -0.06171435
0.07500473 0.072733186 0.11530964 0.14107814 0.03809256 -0.04981291 0.07234787 -0.06882107
-0.1394842 -0.031948153 0.049135413 -0.003378468 -0.08245667 0.00035483873 0.098110415 0.055416446
0.1151552 0.04240567 0.03217646 0.051079057 0.15008979 0.15376903 0.16885322 0.08533783
0.12502627 0.03783618 0.052512493 0.011091355 0.015414454 0.06377375 -0.008840919 0.014605266
-0.031167595 -0.022252612 -0.03473899 0.02404337 -0.13457103 0.035571523 -0.069857635 -0.08220808
-0.17478602 0.022718798 -0.23634921 -0.072931394 -0.08231044 0.09056438 0.014372065 -0.06864958
-0.1397093 -0.117404886 -0.042582713 -0.11530428 -0.04342978 -0.01730231 0.18820632 0.07078047
0.0071447506 0.124112986 0.12874278 0.06396405 0.12036937 -0.040626153 0.07830591 -0.004000945
-0.09750704 0.044613823 0.10447795 0.018820401 0.044903137 0.06635008 0.008595999 -0.20352113
0.059116367 -0.03841684 -0.0011293036 -0.014217738 -0.050924055 0.1213504 0.07496811 0.06379345
-0.009035563 0.09946719 -0.052449908 0.02261656 -0.08134484 0.0032738224 -0.08691902 0.061214685
0.014901179 0.06819882 0.0438057 -0.0088686375 0.017085727 -0.11645785 -0.022835264 -0.07437025
-0.057984024 -0.07897479 -0.08286018 0.09957282 -0.051237807 -0.0077732666 -0.09261142 0.0061536534
-0.0011824655 -0.13559462 -0.12654617 0.015848784 0.14566864 0.052219484 -0.11628668 -0.001689844
-0.0030648562 -0.15510936 -0.12689726 -0.11735608 0.02916929 0.032148782 0.08019207 -0.10385948
-0.0017955445 -0.03475337 -0.055574697 -0.1800115 -0.1295366 -0.008916329 -0.040166035 -0.008865187
0.026030114 0.009588031 0.004052143 -0.05741028 0.0753624 -0.042690422 0.014173606 0.011254469
0.1655365 0.098076485 0.056099027 -0.044130467 0.08033231 -0.019458724 0.1861892 -0.122475274
0.04715391 0.11092458 -0.056331486 0.043910176 0.0149883125 -0.13153039 -0.15785232 0.05769189
-0.13793348 -0.0335762 -0.11165051 0.1112308 -0.084456265 -0.060666475 0.07968737 -0.06556788
-0.01822753 0.050772365 -0.14045188 -0.015374025 0.05522931 0.032702804 0.08397503 -0.04993716
0.13035555 0.17297368 0.08827122 -0.11698567 -0.061385114 -0.1486918 -0.06111471 0.16366723
-0.030363953 0.012995602 0.059559315 0.16947407 0.058489647 0.041278616 0.085051306 0.0973652
