pretrained/classifier_nmnist.pt (torch, 950068 bytes, 78 tensors)

models.0.model.0.weight f4 [16, 1, 3, 3]
0	0xbe8103b9	-0.25198153
1	0xbeafd054	-0.3433863
2	0x3dd50de5	0.10403041
3	0x3e97594f	0.29560325
4	0xbdac8a8d	-0.08424864
5	0xbeab66e2	-0.3347693
6	0xbda59737	-0.080854826
7	0x3e1eb296	0.15497813
8	0x3e931273	0.28725013
9	0x3e25308c	0.161318
10	0xbe26f7a0	-0.16305399
11	0x3e89b6f4	0.26897395
12	0x3e1af028	0.15130675
13	0xbd121e4b	-0.03567342
14	0x3e593fbd	0.2121572
15	0xbe83989c	-0.2570237
16	0x3b0ab4cc	0.0021164892
17	0x3c8f4ac3	0.017491704
18	0xbcf54801	-0.02994156
19	0x3e63ab6c	0.22233361
20	0x3e431c45	0.19053753
21	0x3d4913a2	0.04909099
22	0x3d85e224	0.065372735
23	0xbe774d02	-0.2415047
24	0x3e6a3d89	0.22875036
25	0xbcfa4109	-0.03054859
26	0xbe426697	-0.18984447
27	0x3d8a04f5	0.06739227
28	0xbe2c1093	-0.16803198
29	0x3cc24954	0.023716606
30	0xbcda32d2	-0.026635561
31	0x3b8e74e6	0.0043474315
32	0x3e4dd614	0.20101196
33	0x3e2378c9	0.15964045
34	0x3e73c743	0.23806481
35	0xbe9264df	-0.28592584
36	0xbd9397a3	-0.07206657
37	0xbdd65b91	-0.10466684
38	0xbdd58686	-0.10426049
39	0xbeb51214	-0.35365355
40	0x3e3a877a	0.18215743
41	0xbc123eb8	-0.008926086
42	0x3e848383	0.25881585
43	0x3e8bd220	0.2730875
44	0x3dad0a4e	0.08449231
45	0xbe166d0f	-0.1469004
46	0x3e8a8813	0.2705694
47	0x3e43e603	0.19130711
48	0x3e29e42e	0.1659095
49	0xbdc2bf55	-0.0950915
50	0x3dd15cbe	0.10222767
51	0xbe8d064a	-0.2754386
52	0x3e8aa6b4	0.2708031
53	0x3e951cd8	0.2912357
54	0xbd16a600	-0.036779404
55	0xbd56101a	-0.05226145
56	0xbd2589fa	-0.040414788
57	0x3de50c62	0.111840025
58	0x3c8c5687	0.017131103
59	0xbe983b60	-0.297328
60	0xbd2f3f5a	-0.042785026
61	0xbe03ffbe	-0.12890527
62	0x3e619f8f	0.22033523
63	0xbe3467ec	-0.17617768
64	0xbe6da5bc	-0.23207754
65	0x3e9344b6	0.2876336
66	0xbe8794d6	-0.2648074
67	0x3e13da52	0.14438751
68	0xbd5819e5	-0.05275907
69	0xbe8dff65	-0.27733913
70	0xbeada395	-0.33913866
71	0xbbe661fe	-0.0070307245
72	0xbd1e9d23	-0.038724076
73	0x3dda78cd	0.10667572
74	0x3d3786b2	0.04480619
75	0xbe2ac46f	-0.16676496
76	0x3e9df62d	0.3085188
77	0xbca6c3e3	-0.020357078
78	0x3da582f1	0.08081616
79	0xbe073d06	-0.13206872
80	0xbdd033a0	-0.10166097
81	0xbe289bd6	-0.16465697
82	0xbe3015c1	-0.17195798
83	0xbe87eab1	-0.26546243
84	0x3e44fac8	0.1923629
85	0x3e7e0ff0	0.24810767
86	0x3e0b7c77	0.13621698
87	0xbe9efa7a	-0.31050473
88	0x3d1bb1cc	0.038011357
89	0xbebabd6a	-0.36472636
90	0xbe299093	-0.16559057
91	0xbc1da3f6	-0.009621611
92	0x3e18668c	0.14882869
93	0xbe20183e	-0.15634248
94	0x3e3bd147	0.18341552
95	0x3e078dd3	0.13237695
96	0xbc94b1ee	-0.01815125
97	0x3e99bb3e	0.30025667
98	0xbe0983c1	-0.13429166
99	0x3d7d1c81	0.06179476
100	0xbe1f25c6	-0.15541753
101	0x3c768738	0.015046887
102	0x3ddbffb5	0.107421316
103	0xbea0f452	-0.31436402
104	0x3e8da798	0.27666926
105	0x3e3fcc87	0.18730365
106	0xbe19c4eb	-0.15016524
107	0xbe639bbf	-0.22227381
108	0xbe0a10bb	-0.13482945
109	0x3e160edc	0.14654106
110	0xbe8e73f7	-0.2782285
111	0xbe0a22b9	-0.13489808
112	0xbe9d840f	-0.30764815
113	0x3e9b7739	0.30364397
114	0x3e5f2511	0.21791483
115	0xbeb024d2	-0.34403092
116	0xbe9c2444	-0.30496418
117	0xbe3fb60d	-0.1872179
118	0x3e60a0ad	0.21936293
119	0x3e821ccb	0.25412592
120	0x3e393b86	0.18089113
121	0x3d942cd0	0.0723511
122	0xbe934967	-0.2876694
123	0xbd6e3b61	-0.058162097
124	0x3e8124d4	0.2522341
125	0xbe51a9e5	-0.20474966
126	0xbdb40dd7	-0.08791702
127	0x3e646f07	0.22307979
128	0xbdd1aed8	-0.10238427
129	0xbe23ee35	-0.16008838
130	0xbe8339c2	-0.25630003
131	0xbe8db580	-0.27677536
132	0xbecfb394	-0.40566695
133	0xbd744bde	-0.059642665
134	0x3c9eb9db	0.019375732
135	0x3e4b04c4	0.19826037
136	0xbe2fd328	-0.17170393
137	0xbdc947c1	-0.09828139
138	0xbe6f5913	-0.23373823
139	0x3eaac17d	0.33350745
140	0x3c1f42d8	0.009720527
141	0xbe9ccca7	-0.30624887
142	0x3e422c21	0.18962146
143	0x3e365a60	0.17807913

models.0.model.0.bias f4 [16]
0	0x3e147666	0.1449829
1	0x3ea90df1	0.3301845
2	0xbdd90fd2	-0.105987206
3	0x3db6a0d0	0.08917391
4	0x3eb23a15	0.34809938
5	0x3d801e03	0.06255724
6	0xbcab8b19	-0.02094035
7	0x3d258e81	0.040419105
8	0xbdc89224	-0.09793499
9	0x3e252c31	0.16130139
10	0x3e1573f5	0.14595015
11	0x3e002490	0.12513947
12	0x3d3b5f4e	0.045745187
13	0x3e28e275	0.16492637
14	0x3cb0c600	0.021578789
15	0xbe1ece59	-0.15508403

models.0.model.2.weight f4 [16]
0	0x3f81edab	1.0150656
1	0x3f626c84	0.8844683
2	0x3f770c4a	0.96503127
3	0x3f665841	0.89978415
4	0x3f6c39b2	0.92275536
5	0x3f6dbf36	0.9286989
6	0x3f88bc9b	1.0682558
7	0x3f8395b7	1.0280064
8	0x3f845baa	1.0340474
9	0x3f800096	1.0000179
10	0x3f61ad8b	0.8815543
11	0x3f742bfc	0.95379615
12	0x3f796412	0.9741832
13	0x3f736cc6	0.9508785
14	0x3f85daaa	1.0457356
15	0x3f885282	1.0650179

models.0.model.2.bias f4 [16]
0	0xbd15e3f4	-0.036594346
1	0x3df9eb31	0.12203062
2	0x3c444b3d	0.011980829
3	0xbd8adb22	-0.067800775
4	0xbd270304	-0.04077436
5	0xbb7deb13	-0.0038744851
6	0xbccba993	-0.024861133
7	0x3d518c96	0.051159464
8	0x3e096d23	0.13420539
9	0xbdd40534	-0.10352555
10	0x3d1f010e	0.038819365
11	0xbd891ef4	-0.06695357
12	0xbd24ff70	-0.040282667
13	0x3bee0169	0.0072633517
14	0xbdaa33ce	-0.08310662
15	0x3de4326d	0.111424305

models.0.model.2.running_mean f4 [16]
0	0x3dce79a9	0.100817986
1	0x3ef1fafc	0.47261798
2	0x3d8ba9ee	0.06819521
3	0x3e320237	0.17383657
4	0x3ed20e86	0.41026706
5	0x3ec2b395	0.38027635
6	0x3acd30a5	0.0015654756
7	0x3cafdf92	0.021468911
8	0x3c53dbce	0.0129308235
9	0x3d90cf0e	0.070707425
10	0x3e8de45c	0.27713287
11	0x3da77c5f	0.08178019
12	0x3c95c110	0.018280536
13	0x3e83af73	0.25719795
14	0x3c12e839	0.008966499
15	0x3c5a6681	0.013330103

models.0.model.2.running_var f4 [16]
0	0x3c43c959	0.0119498605
1	0x3d065b51	0.03280193
2	0x3c22f746	0.00994665
3	0x3c45b8bd	0.012067971
4	0x3cf1fee8	0.029540494
5	0x3ded7d7e	0.11596201
6	0x38cd5777	9.791453e-05
7	0x3aa196dc	0.0012328285
8	0x3a9dab67	0.0012029231
9	0x3be93b17	0.0071176398
10	0x3cf3bb45	0.029752383
11	0x3bd420ea	0.00647365
12	0x3a271904	0.0006374272
13	0x3ca77b10	0.020444423
14	0x391aeabf	0.00014774034
15	0x3b1d7c17	0.0024030262

models.0.model.3.weight f4 [16, 16, 3, 3]
0	0xbc935f9e	-0.01798993
1	0x3d6decd7	0.058087196
2	0xbd1030ec	-0.035202906
3	0x3dcbcf27	0.099516205
4	0x3dd74157	0.105105095
5	0xbcfd6f47	-0.03093685
6	0xbda64757	-0.08119076
7	0x3bd9adf2	0.0066430504
8	0xbd773aa3	-0.060358655
9	0x3c919669	0.017771916
10	0x3ce15ea8	0.027510956
11	0x3d2877be	0.04112982
12	0xbc47d288	-0.012196191
13	0xbd93880b	-0.072036825
14	0xbd71f6ed	-0.059073377
15	0x3c9d3a80	0.019192934
16	0x3d1f3519	0.038868997
17	0x3cd35542	0.02579749
18	0xbb002bee	-0.0019557434
19	0xbceb1a21	-0.028698983
20	0x3c82e174	0.015976645
21	0xbcef3d23	-0.029203957
22	0xbdadf1fb	-0.0849342
23	0xbc46f5a5	-0.012143527
24	0x3c2abde7	0.010421253
25	0x3c1193fc	0.00888538
26	0xbc80ffee	-0.015747037
27	0xbc8cc244	-0.017182477
28	0xbd25b4ff	-0.040455814
29	0xbd38e846	-0.04514339
30	0x3bbdcf7a	0.0057925554
31	0xbda67b23	-0.08128955
32	0x3d872cba	0.06600328
33	0x3d89c698	0.06727332
34	0x3c06ec9f	0.008235126
35	0xbd6bf15f	-0.057603236
36	0x3b0245cc	0.0019878028
37	0xbd824f80	-0.0636282
38	0x3c7d127a	0.0154463
39	0xbda23d6d	-0.07921872
40	0xbd8f7ee4	-0.07006624
41	0x3d8a9955	0.06767527
42	0xbcf25f7b	-0.029586544
43	0x3cf6f3f6	0.030145627
44	0x3d8c90a2	0.06863524
45	0xbd918815	-0.07106034
46	0xbdb44237	-0.08801692
47	0xbd4c5f03	-0.049895298
48	0x3cc3c458	0.023897335
49	0x3d5fdbe0	0.05465305
50	0x3cb1a9fb	0.021687498
51	0xbd81f11a	-0.063448146
52	0xbd970063	-0.07373121
53	0xbc4ce6f5	-0.012506236
54	0xbddf55fc	-0.10905072
55	0x3d75c058	0.059997886
56	0x3dde8724	0.1086562
57	0x3e02739a	0.12739411
58	0xbd9bbbbe	-0.07604168
59	0x3dbf9894	0.09355274
60	0xbd889ae7	-0.0667017
61	0xbdaa6754	-0.083204895
62	0x3df9f0b8	0.122041166
63	0x3d64c516	0.05585202
64	0x3ce51b9c	0.027967267
65	0xbd2b5e2c	-0.041837856
66	0xbcf2987a	-0.029613722
67	0x3d806754	0.06269708
68	0xbd19e532	-0.037572093
69	0xbcde1808	-0.027111068
70	0x3d9d2ee5	0.0767496
71	0xbda0c183	-0.078494094
72	0x3da9718c	0.082736105
73	0x3dd50fcc	0.10403404
74	0xbdaa2a03	-0.08308794
75	0xbd8a57a4	-0.067549974
76	0xbd568c52	-0.052379914
77	0x3d786642	0.060644396
78	0xbdc03e51	-0.09386886
79	0xbd3dc6a8	-0.04633203
80	0x3daa08d9	0.08302469
81	0xbc741919	-0.014898562
82	0x3d701734	0.05861588
83	0xbcf903be	-0.030397292
84	0x3c206225	0.0097890245
85	0x3b4eb312	0.003153984
86	0xbd822e26	-0.06356458
87	0xbdfbe9da	-0.12300463
88	0x3d88cd63	0.066797994
89	0x3caf540e	0.021402385
90	0x3db24170	0.087038875
91	0x3c697e41	0.014251293
92	0xbc9417c2	-0.018077735
93	0xbd9e58d6	-0.07731788
94	0xbdef95f6	-0.11698525
95	0xbca44211	-0.020051034
96	0xbd625399	-0.055255506
97	0xbcbea521	-0.023272099
98	0xbd3735ab	-0.044728916
99	0xbd4922cd	-0.049105454
100	0xbce26063	-0.027633851
101	0xbd9d3a7e	-0.07677172
102	0x3d04c866	0.032417677
103	0x389a83e7	7.367861e-05
104	0x3d151859	0.036400173
105	0x3dd429df	0.10359549
106	0x3d4e43f0	0.05035776
107	0xbd99c2e8	-0.075078785
108	0x3d210628	0.03931251
109	0xbd222ae1	-0.039591674
110	0x3d5ade10	0.05343443
111	0x3db7a4cd	0.0896698
112	0xbcd6f317	-0.026238961
113	0x3d927627	0.07151442
114	0xbd6b5159	-0.057450626
115	0xbcc3475a	-0.023837734
116	0xbd3ffa87	-0.04686978
117	0x3cbad43d	0.022806281
118	0xbd4f466e	-0.050604276
119	0xbd71b410	-0.05900961
120	0xba8a6651	-0.0010559057
121	0xbd82dc6e	-0.063897
122	0x3d1a52b6	0.037676536
123	0xbc3fdc9f	-0.011710315
124	0x3cfda4e7	0.03096242
125	0x3d49b7b2	0.04924745
126	0xbcb3a5d4	-0.021929659
127	0x3e099b5c	0.13438171
128	0x3d7baa94	0.061441973
129	0x3d5cff01	0.05395413
130	0xbdd5e08d	-0.1044322
131	0x3d84622f	0.064640395
132	0xbd16c707	-0.0368109
133	0x3e054ea3	0.13018279
134	0x3dc3d299	0.09561653
135	0xbcf08f75	-0.02936528
136	0xbc91eff5	-0.017814616
137	0xbd8ddb71	-0.06926621
138	0x3d27c4dd	0.040959228
139	0xbcc7b620	-0.024378836
140	0x3cf66cb6	0.030081134
141	0xbcce9408	-0.025217071
142	0x3d283475	0.041065652
143	0xbd141061	-0.036148433
144	0x3b3e8980	0.0029073656
145	0x3d42f982	0.04760123
146	0x3d5c7c42	0.05382944
147	0xbd4e8478	-0.0504193
148	0x3d167a04	0.036737457
149	0x3c838be6	0.01605792
150	0xbd665ba9	-0.056239758
151	0xbd01f76a	-0.031730093
152	0x3cccc110	0.024994403
153	0xbcf4fb9c	-0.029905133
154	0x3d22d283	0.03975154
155	0x3cd59dec	0.02607628
156	0xbcf4634e	-0.029832508
157	0xbcb4281f	-0.021991787
158	0xbcc1fccd	-0.023680115
159	0x3b43e129	0.0029888845
160	0x3cca2709	0.024676817
161	0x3d09676b	0.033545893
162	0x3bfeda8e	0.0077775186
163	0xbc56572a	-0.013082305
164	0xbc9e821d	-0.019349152
165	0xbd23c55f	-0.03998315
166	0x3d713342	0.058886774
167	0xbc5e5069	-0.013568976
168	0xbd0ce923	-0.034402024
169	0x3d80b8ce	0.06285249
170	0x3df69c2a	0.12041505
171	0xbbe22fcc	-0.0069026705
172	0xbd057e03	-0.032590877
173	0xbd807791	-0.062728055
174	0x3d397f6e	0.045287542
175	0xbdec5aaa	-0.1154073
176	0x3dba41ba	0.090945676
177	0x3c122445	0.00891978
178	0x3d65802e	0.056030445
179	0xbd03c1e0	-0.032167315
180	0x3c6729b7	0.014109067
181	0x3c8583fe	0.01629829
182	0x3ce66db0	0.028128475
183	0x3c8a40c7	0.016876591
184	0x3c184a2c	0.009295028
185	0x3db1df44	0.08685163
186	0x3c3a699f	0.011377721
187	0xbd3cc5d8	-0.046087116
188	0xbc485ee5	-0.012229656
189	0x3d9485ac	0.072520584
190	0x3d56d479	0.052448723
191	0xbd8cf53a	-0.06882711
192	0xbd97a362	-0.0740421
193	0xbdb4b2cb	-0.088231646
194	0x3d5f8356	0.05456861
195	0xbd1f9fc8	-0.03897074
196	0x3d5cac7d	0.053875435
197	0xbc9379b6	-0.018002372
198	0x3d78ab51	0.060710255
199	0xbc6d7652	-0.014493542
200	0xbd5aba5c	-0.053400382
201	0x3da7b78f	0.08189308
202	0x3e053ea6	0.1301218
203	0xbd39c4f3	-0.04535384
204	0x3dcb04f7	0.09913056
205	0xbd86178f	-0.06547462
206	0xbd23c664	-0.039984122
207	0xbb75994c	-0.0037475405
208	0x3dc72754	0.09724298
209	0x3cd6c246	0.026215684
210	0x3da02f7b	0.07821556
211	0x3c0050a0	0.0078317225
212	0x3d86fb9c	0.065909594
213	0x3d1186c1	0.035528902
214	0xbd9bb48c	-0.07602796
215	0xbdf8571c	-0.1212599
216	0xbe0fd857	-0.14047371
217	0x3c861afb	0.016370287
218	0xbd5736fd	-0.052542675
219	0x3a0fcf5c	0.0005485916
220	0xbd254697	-0.040350523
221	0xbb7c30df	-0.0038481278
222	0xbdcf4666	-0.10120849
223	0xbdf5e28e	-0.120061025
224	0x3b34e1c9	0.0027600399
225	0xbc9239f2	-0.017849896
226	0xbd7e4fee	-0.062087946
227	0xbcb2b676	-0.02181552
228	0x3d1a32aa	0.037645973
229	0xbd84f6bf	-0.064923756
230	0xbc134ae2	-0.008990021
231	0x3da6544c	0.08121547
232	0x3dde6592	0.10859217
233	0xbd834be4	-0.06410959
234	0xbb697a03	-0.0035625703
235	0xbd7072f5	-0.05870338
236	0xbd85c6dc	-0.0653207
237	0xbd2f33eb	-0.042774122
238	0x3cb48b17	0.02203898
239	0x3d8f2f0e	0.06991397
240	0xbcf5cca4	-0.030004807
241	0x3c8bef65	0.017081926
242	0xbcde6100	-0.027145863
243	0xbbee3087	-0.0072689685
244	0x3d139a58	0.036035866
245	0x3d64cc5e	0.055858962
246	0xba0a5c63	-0.0005278049
247	0xbd8851dd	-0.06656239
248	0xbc30bfea	-0.010787943
249	0xbd29aa64	-0.041422263
250	0x3c197219	0.009365582
251	0x3ce92f09	0.02846481
252	0xbb3c4442	-0.0028727208
253	0x3af29177	0.0018506487
254	0xbd3d1f58	-0.04617247
255	0xbce31142	-0.02771819

models.0.model.3.bias f4 [16]
0	0xbc74f954	-0.014952023
1	0xbd774aaa	-0.06037394
2	0xbbbe3fff	-0.005805969
3	0xbd832841	-0.06404162
4	0x3baf1a67	0.0053437236
5	0x3d2e1ea4	0.04250969
6	0xbdb68958	-0.08912915
7	0xbd6c51a0	-0.05769503
8	0x3b363307	0.002780141
9	0xbd92b448	-0.07163292
10	0xbdc4a9ad	-0.096026756
11	0xbe073183	-0.13202481
12	0xbd42a9cf	-0.047525223
13	0x3abe8e66	0.0014538288
14	0xbd64b487	-0.055836227
15	0xbe1ec08f	-0.15503143

models.0.model.5.weight f4 [16]
0	0x3f76b3e3	0.96368235
1	0x3f743f05	0.9540866
2	0x3f67e408	0.90582323
3	0x3f78ff3e	0.9726447
4	0x3f8374d5	1.0270029
5	0x3f740c3f	0.95331186
6	0x3f7cd9f6	0.9877008
7	0x3f86e4fe	1.0538633
8	0x3f83e82b	1.0305227
9	0x3f701412	0.93780625
10	0x3f82c579	1.0216514
11	0x3f705926	0.9388603
12	0x3f74fc2d	0.9569729
13	0x3f73a1ce	0.9516877
14	0x3f87a96c	1.0598578
15	0x3f79481c	0.97375655

models.0.model.5.bias f4 [16]
0	0xbd7bbc41	-0.06145883
1	0x3d201aba	0.03908799
2	0x3d3ca1ea	0.04605285
3	0xbd704540	-0.058659792
4	0x3ca76f7d	0.020438904
5	0x3d64fe87	0.0559068
6	0x3de29601	0.11063767
7	0x3ded6287	0.11591058
8	0xbca9b7b5	-0.020717481
9	0x3e006e39	0.12542047
10	0x3c93a9a9	0.018025236
11	0x3c3446f0	0.011003241
12	0xbca1f853	-0.01977173
13	0x3dafa6d7	0.08576744
14	0x3e008191	0.12549426
15	0xbc978505	-0.018496046

models.0.model.5.running_mean f4 [16]
0	0x3ee64529	0.4497464
1	0x3e93fdfe	0.28904718
2	0x3ed52b15	0.4163443
3	0x3e8c4bfd	0.27401724
4	0x3e809fdf	0.25121972
5	0x3e93bea2	0.2885638
6	0x3e4c95b2	0.19978979
7	0x3e446ebc	0.19182867
8	0x3e417ee8	0.18896067
9	0x3e5eb4fc	0.21748728
10	0x3e3d10f3	0.18463497
11	0x3e902f08	0.28160882
12	0x3ec5f5ae	0.38664
13	0x3ea3f453	0.32022342
14	0x3e88f60d	0.26750222
15	0x3e778658	0.24172342

models.0.model.5.running_var f4 [16]
0	0x3e99f3c8	0.30068803
1	0x3e4527ee	0.19253513
2	0x3ec70b7f	0.38875958
3	0x3e3bc543	0.18336968
4	0x3e6faa91	0.2340491
5	0x3e04441e	0.1291661
6	0x3defa65f	0.11701655
7	0x3dda5036	0.1065983
8	0x3e33cbc9	0.17558207
9	0x3e34bd37	0.17650305
10	0x3e0b94cc	0.1363098
11	0x3e59b1d3	0.21259241
12	0x3e87e414	0.26541197
13	0x3e445906	0.19174585
14	0x3e2a25d0	0.16615987
15	0x3e3ec335	0.18629153

models.0.model.6.weight f4 [16, 16, 5, 5]
0	0x3d651876	0.05593153
1	0x3cbdf485	0.023187885
2	0xbd0aed65	-0.033917803
3	0xb9b88b39	-0.00035198944
4	0xbca17438	-0.019708738
5	0xbd76a1c4	-0.060212865
6	0xbcb53d92	-0.022124086
7	0xbdb1ac71	-0.08675469
8	0xbc172a36	-0.009226372
9	0x3cad92f8	0.021188244
10	0x3d196554	0.03745015
11	0xbbef746e	-0.0073075807
12	0x3d1d315a	0.038377143
13	0xbd0f52cb	-0.034991067
14	0xbcc4b3b3	-0.024011469
15	0x3c2ac290	0.010422364
16	0xbd2c8534	-0.04211922
17	0xbd95dc2d	-0.07317386
18	0xbd1f2aac	-0.038859054
19	0xbc8a4547	-0.016878737
20	0x3d9dc97a	0.07704444
21	0x3d5c92a1	0.053850774
22	0x3d1f058b	0.038823646
23	0x3c66df6d	0.014091355
24	0xbadf60af	-0.0017042364
25	0x3ca631f8	0.020287499
26	0xbce418ef	-0.02784392
27	0xbd82ba68	-0.063832104
28	0xbcdf8562	-0.027285282
29	0xbda4b8eb	-0.08043083
30	0xbd1d9416	-0.038471304
31	0x3b96712f	0.0045911293
32	0xbd865aee	-0.06560312
33	0xbd55bfda	-0.052184917
34	0xbcb1ad79	-0.021689164
35	0x3d8ed0b5	0.069734015
36	0xbc90b4a2	-0.017664257
37	0x3d0e34dc	0.03471838
38	0x3d117c19	0.03551874
39	0x3d066b1c	0.03281699
40	0x3cf79bcf	0.030225663
41	0xbc08db84	-0.008353118
42	0xbcb6e640	-0.022326589
43	0x3b1e884e	0.002419013
44	0xbd43fd5d	-0.047849048
45	0x3d8d56dd	0.069013335
46	0x3c4f2672	0.012643443
47	0xbc302180	-0.0107501745
48	0x3d9c36d3	0.076276444
49	0xbd54319b	-0.05180512
50	0x3d948e0c	0.07253656
51	0x3cf55da7	0.029951883
52	0xbd038935	-0.032113273
53	0xbd2a2299	-0.0415369
54	0x3d88029b	0.06641122
55	0x3d93f8c8	0.07225186
56	0x3d3ee54d	0.046605397
57	0xbd8af7ea	-0.06785567
58	0x3bb129ab	0.0054065785
59	0x3da5e35f	0.08100008
60	0xbb0f23b2	-0.0021841344
61	0xbceb6352	-0.028733883
62	0xbc9eb05e	-0.019371208
63	0xbd394306	-0.045229934
64	0x3cf32beb	0.029684028
65	0xbd3d703d	-0.046249617
66	0xbd3e1d64	-0.046414748
67	0xbcecdafe	-0.028913017
68	0x3bbce4b1	0.005764567
69	0x3ca5516e	0.02018043
70	0xbcd56aa9	-0.026051836
71	0xbdc92282	-0.09821035
72	0xbd031872	-0.032005735
73	0xbced2e6b	-0.028952798
74	0x3ce7fcd0	0.028318793
75	0xbcee069c	-0.029055886
76	0x3daca754	0.08430353
77	0x3ca57e3d	0.020201797
78	0xbced5548	-0.02897133
79	0x3c06cb61	0.0082272
80	0xba32c0c7	-0.0006818887
81	0x3d12d29b	0.03584538
82	0x3ce90fc2	0.028449897
83	0xbcbf6dbe	-0.023367759
84	0xbc0032fe	-0.0078246575
85	0xbd0b7f8e	-0.034057193
86	0x3be690d8	0.0070363097
87	0x3bee1af1	0.0072663953
88	0xbd24afd6	-0.040206753
89	0xbdb35c98	-0.08757895
90	0x3c916a1d	0.017750794
91	0xbd845552	-0.06461586
92	0x3d51b13e	0.051194422
93	0xbc669077	-0.014072529
94	0xbda5cc0f	-0.08095562
95	0x3c58266e	0.013192756
96	0xbd8464ad	-0.06464515
97	0xbd3929fd	-0.04520606
98	0xbd732055	-0.059357006
99	0xbd346bd5	-0.04404815
100	0x3d6e8990	0.05823666
101	0xbd07db69	-0.03316823
102	0x3d154312	0.036440916
103	0xbab87ddb	-0.0014075594
104	0x3d29b47e	0.041431896
105	0x3d891972	0.066943064
106	0x3d0da08f	0.03457695
107	0xbd09e95a	-0.033669807
108	0xba8e6c0e	-0.0010865943
109	0x3dabdbec	0.08391556
110	0xbc9749a8	-0.01846774
111	0xbbb47369	-0.005506922
112	0xbd1033ad	-0.035205532
113	0x3d233e95	0.039854605
114	0x3d565935	0.05233117
115	0x3c9d3fb2	0.019195411
116	0xbd846360	-0.06464267
117	0xbe1b184b	-0.15145986
118	0xbd10f02c	-0.035385296
119	0xbc2e3483	-0.010632637
120	0x3c282442	0.010262551
121	0xbba0b3c7	-0.0049042436
122	0xbdc8a164	-0.09796408
123	0xbe0caee8	-0.13738596
124	0xbdab70cf	-0.08371126
125	0xbd6e230c	-0.058138892
126	0xbdc0c5e5	-0.094127454
127	0x3c9ec74b	0.01938214
128	0xbcf8f95a	-0.030392338
129	0xbd61a070	-0.055084646
130	0xbd5000dc	-0.05078207
131	0xbd2c1229	-0.042009506
132	0xbcf2da6c	-0.029645167
133	0xbb4ad80a	-0.0030951523
134	0x3c67b68f	0.014142646
135	0xbcb6d7bb	-0.022319665
136	0x3cc5a1ec	0.024125062
137	0xbd136bdb	-0.03599153
138	0xbd1cca2e	-0.03827875
139	0xbda495f1	-0.080364116
140	0xbd8b0f9b	-0.06790086
141	0x3d3ca672	0.046057172
142	0xbc91cbfb	-0.01779746
143	0xbcd9e3ed	-0.026597941
144	0xbce1c31a	-0.027558852
145	0xbd8fc398	-0.070197284
146	0x3daa4291	0.08313478
147	0xbae020e5	-0.0017099647
148	0xbc854e01	-0.016272547
149	0x3d4ffe7e	0.050779812
150	0x3c9d73a9	0.01922019
151	0xbd26ef01	-0.040755276
152	0xbcad3e3e	-0.021147843
153	0xbcc30124	-0.023804255
154	0xbdd01a75	-0.10161296
155	0x3c8a7f57	0.016906423
156	0xbc221fa8	-0.009895243
157	0xbcc34b17	-0.023839517
158	0x3c26a60c	0.010171425
159	0xbc835c9e	-0.016035374
160	0x3c37a8b4	0.011209656
161	0x3c93e219	0.018052148
162	0xbbba02a6	-0.0056765852
163	0xbc8a7c22	-0.016904894
164	0xbb62c7c2	-0.0034603928
165	0x3d068db8	0.032849997
166	0xbd50d2ea	-0.050982393
167	0xbca11a93	-0.019665992
168	0xbcff250a	-0.031145591
169	0xbd9c2871	-0.07624901
170	0xbd1a86b3	-0.037726115
171	0x3ce88bae	0.028386917
172	0x3b31112a	0.0027018287
173	0x3d3481ec	0.044069216
174	0x3cd6651e	0.026171263
175	0x3d9edab6	0.077565596
176	0x3ccbd18c	0.024880193
177	0x3d83fc5a	0.064446166
178	0x3ddfd6fc	0.10929677
179	0xbc8cba66	-0.017178725
180	0x3d2c27a8	0.042030007
181	0x3d3efc5a	0.04662738
182	0x3cb016ee	0.021495309
183	0xbceba6f1	-0.028766127
184	0x3c6d47fd	0.014482495
185	0xbbf8a2a9	-0.00758775
186	0xbd684488	-0.05670598
187	0xbd383495	-0.04497202
188	0xbbc5fd8d	-0.0060421885
189	0xbb8deb9d	-0.004331066
190	0xbca33f52	-0.019927654
191	0xbdb89e68	-0.090145886
192	0xbcfd4fe6	-0.030921888
193	0xbc93ace0	-0.01802677
194	0x3d2636c6	0.04057958
195	0xbd4d8b84	-0.05018188
196	0xbd92c968	-0.071673214
197	0xbcf12534	-0.029436685
198	0xbd3c2bdc	-0.045940265
199	0xbddabd99	-0.10680694
200	0xbc2fceb8	-0.010730438
201	0xbb00a6f5	-0.0019630764
202	0x3d33ce64	0.043898
203	0xbd775e96	-0.06039294
204	0xbd30a70c	-0.04312806
205	0x3cd8bea0	0.026458085
206	0x3b58615c	0.0033017015
207	0xbccae247	-0.0247661
208	0x3be4aa4d	0.0069783092
209	0x3d31f826	0.043449543
210	0xbd970f6c	-0.07375988
211	0xbda7591c	-0.08171293
212	0x3cb70d08	0.022345081
213	0xbca10477	-0.01965545
214	0x3db694dd	0.08915112
215	0xbdb11527	-0.086466126
216	0xbc04ff72	-0.0081175435
217	0xbcb4c74a	-0.022067685
218	0xbc929a7a	-0.017895926
219	0xbd3eba19	-0.046564195
220	0xbca0df76	-0.019637804
221	0x3a592731	0.0008283733
222	0xbda1de68	-0.07903749
223	0x3b9916f4	0.0046719257
224	0xbdfc5ad7	-0.12322014
225	0xbd02122f	-0.031755622
226	0x3c5de112	0.0135424305
227	0x3d576172	0.052583165
228	0x3d967dc9	0.0734821
229	0x3c8d9643	0.017283564
230	0x3cc7be90	0.02438286
231	0xbc5131a4	-0.012768183
232	0xbd4682fa	-0.048464753
233	0xbd8b5b68	-0.06804544
234	0x3d3d0785	0.04614975
235	0xbd0ba9b8	-0.034097403
236	0xbcb825d6	-0.02247898
237	0xbb3b9205	-0.002862097
238	0xbd13cf93	-0.03608663
239	0xbce14dc1	-0.027502896
240	0xbcb86d36	-0.022513013
241	0xbca70ff5	-0.020393351
242	0xbd7a433d	-0.06109928
243	0x3bc67f17	0.0060576308
244	0xbb2c59cb	-0.0026298638
245	0xbd3df8ca	-0.046379842
246	0xbc87dae2	-0.016583864
247	0xbdacf611	-0.08445371
248	0x39cb1f93	0.00038742702
249	0xbd21559b	-0.03938828
250	0x3c9d84cc	0.019228362
251	0xbd6f6f7c	-0.05845593
252	0xbd955ada	-0.07292719
253	0x3b254910	0.002522055
254	0xbd082a20	-0.0332433
255	0x3d65f15e	0.05613839

models.0.model.6.bias f4 [16]
0	0xbd791134	-0.06080742
1	0x3d610e64	0.054945365
2	0xbd37a377	-0.044833627
3	0xbdaf0197	-0.08545225
4	0xbdc919cd	-0.09819374
5	0xbd6bf75d	-0.05760895
6	0xbc849970	-0.016186446
7	0x3a8073b3	0.0009800106
8	0xbd8306d5	-0.063977875
9	0xbdbc5555	-0.09195963
10	0x3bd5cd93	0.0065247505
11	0xbc8996c4	-0.016795523
12	0xbd9cfeaa	-0.07665761
13	0xbdb7bd35	-0.08971635
14	0xbe052e23	-0.13005881
15	0xbcd8ce1f	-0.026465474

models.0.model.8.weight f4 [16]
0	0x3f811e20	1.0087318
1	0x3f752fb4	0.95775914
2	0x3f83075e	1.0236623
3	0x3f7ca49b	0.9868867
4	0x3f6eeccd	0.9333008
5	0x3f7a71e0	0.9783001
6	0x3f7ead3d	0.9948309
7	0x3f7e3342	0.99296963
8	0x3f73e434	0.95270085
9	0x3f79af6c	0.975333
10	0x3f63060f	0.8868112
11	0x3f61c6bb	0.88193864
12	0x3f7ead9f	0.99483675
13	0x3f772464	0.965399
14	0x3f7fc451	0.9990893
15	0x3f7a4323	0.9775869

models.0.model.8.bias f4 [16]
0	0x3e344fa2	0.17608503
1	0xbde8482a	-0.11341889
2	0x3c77ca5d	0.015123931
3	0x3e113713	0.14181165
4	0x3cd61cbe	0.026136752
5	0x3da97a8e	0.082753286
6	0x3df0eff9	0.11764521
7	0x3e8df403	0.2772523
8	0x3e513a2a	0.20432344
9	0x3e48ddf2	0.19615915
10	0x3dd6c197	0.10486143
11	0x3df23872	0.11827172
12	0x3dc592ed	0.096471645
13	0xbc9d725c	-0.01921957
14	0x3da65423	0.081215166
15	0x3de2fc4c	0.11083278

models.0.model.8.running_mean f4 [16]
0	0x3f07a27f	0.52982324
1	0x3efa89a9	0.4893315
2	0x3eee18d1	0.46503308
3	0x3f49b00f	0.7878427
4	0x3f106723	0.56407374
5	0x3f1ca567	0.61189884
6	0x3ec2b3ec	0.38027894
7	0x3edc91d5	0.4308001
8	0x3f147ade	0.5799998
9	0x3ed0464e	0.40678638
10	0x3f295ef9	0.6616054
11	0x3efbc6b0	0.49175024
12	0x3f1fc1b4	0.6240494
13	0x3ec41bbf	0.3830242
14	0x3f232266	0.6372436
15	0x3ec84ced	0.3912119

models.0.model.8.running_var f4 [16]
0	0x3f44b98d	0.7684563
1	0x3f24371d	0.64146596
2	0x3f1376cb	0.5760314
3	0x3fc4593f	1.5339736
4	0x3f23678c	0.63829875
5	0x3f1e6574	0.61873555
6	0x3efdad09	0.49546078
7	0x3f060529	0.52351624
8	0x3f731e8d	0.9496849
9	0x3ee50fdb	0.4473866
10	0x3f5a8856	0.8536428
11	0x3f02eb9e	0.51140773
12	0x3f3bfa2b	0.734286
13	0x3f42cdbb	0.7609517
14	0x3f83fb90	1.0311146
15	0x3f062d3d	0.5241278

models.0.model.9.weight f4 [32, 16, 3, 3]
0	0x3bafd917	0.0053664553
1	0xbc0618ea	-0.008184651
2	0xbd9621c7	-0.07330661
3	0xbdfa6e14	-0.12228027
4	0x3d234b50	0.039866745
5	0x3af3c38d	0.0018597707
6	0xbdf71588	-0.12064654
7	0xbdbaef01	-0.091276176
8	0xbd749a76	-0.059717618
9	0xbcf8e2e6	-0.030381631
10	0xbdee63c7	-0.11640125
11	0x3bd48acd	0.006486273
12	0x3d1f7f3f	0.03893971
13	0x3cba8e93	0.022773063
14	0x3ca444fb	0.020052424
15	0x3d837f31	0.06420744
16	0x3cce5048	0.025184765
17	0xbd8dbdf9	-0.06921
18	0x3d36b94b	0.044610303
19	0xbd29c1ef	-0.041444715
20	0xbcc4e8ba	-0.024036754
21	0x388d2868	6.73093e-05
22	0x3c18ec1a	0.009333635
23	0xbd284035	-0.041076858
24	0xbc87c45f	-0.01657313
25	0xbe0e9f78	-0.1392802
26	0x3d7e8e9c	0.06214772
27	0x3d2799c2	0.04091812
28	0x3d85095e	0.06495927
29	0x3d6d2874	0.057899907
30	0x3d95578a	0.072920874
31	0xbd0fdba6	-0.035121582
32	0xbdcc26c0	-0.099683285
33	0x3d009290	0.031389773
34	0xbd874692	-0.06605257
35	0x3d957233	0.072971724
36	0xbd536002	-0.051605232
37	0xbd8f7370	-0.0700444
38	0xbcddb653	-0.027064478
39	0xbd22ee7c	-0.039778218
40	0x3ccf3ab8	0.025296554
41	0x3d095443	0.033527624
42	0xbcbda931	-0.023151966
43	0x3b04b6f6	0.0020250655
44	0x3b0397c1	0.0020079466
45	0xbac72d1a	-0.0015195936
46	0x3cb33de4	0.021880098
47	0xbd7beb5d	-0.061503757
48	0xbd9ac915	-0.075578846
49	0xbda2b72c	-0.079450935
50	0xbdda6cb8	-0.10665268
51	0xbb596667	-0.0033172609
52	0x3d92dc0d	0.071708776
53	0xbda7c9b6	-0.0819277
54	0x3d5c7842	0.053825624
55	0xbd9f6c7a	-0.07784362
56	0xbd983fe2	-0.0743406
57	0x3ddcdd5e	0.1078441
58	0xbd7bd3c9	-0.06148127
59	0xbde47beb	-0.11156448
60	0xbd9dfe8e	-0.07714568
61	0xbd377a9f	-0.044794675
62	0x3d04f23d	0.03245758
63	0xbd4e8f9a	-0.050429918
64	0x3d7265e3	0.059179198
65	0xbdb8880f	-0.09010326
66	0xbdb9e909	-0.09077651
67	0x3ddbad4e	0.107264146
68	0x3ca56acf	0.020192532
69	0x3d46b3b5	0.048511226
70	0x3df2a180	0.1184721
71	0x3cc9130b	0.024545213
72	0x3db0e98c	0.086382955
73	0x3cdfee28	0.027335241
74	0xbd133959	-0.035943363
75	0xbdebf5eb	-0.115215145
76	0x3ccc967a	0.024974097
77	0xbde72cca	-0.1128784
78	0xbdc29c1d	-0.095024325
79	0xbd29f764	-0.041495696
80	0x3d822039	0.06353802
81	0xbdb8a024	-0.090149194
82	0x3d26f44a	0.040760316
83	0xbd89bb24	-0.06725147
84	0xbe059bd7	-0.1304773
85	0x3bee5a69	0.0072739613
86	0x3d936e53	0.07198777
87	0x3dd2f5d6	0.10300796
88	0x3c2aad57	0.010417304
89	0xbcf5d19e	-0.03000718
90	0x3d02c9ec	0.03193085
91	0x3e083c35	0.13304217
92	0xbd24f7df	-0.04027545
93	0x3d16a0e2	0.036774524
94	0xbc581fac	-0.013191145
95	0x3dd7193d	0.10502861
96	0xbd2d2f6f	-0.042281564
97	0xbd91a7db	-0.07112094
98	0x3ce153d7	0.027505798
99	0xbb79c1ad	-0.0038109825
100	0x3c83e8e3	0.01610226
101	0xbd18731e	-0.03721916
102	0x3cda1487	0.026621116
103	0x3cb5074b	0.022098204
104	0xbcbfd1cc	-0.023415469
105	0x3c348b38	0.01101952
106	0xbd82bbf3	-0.06383505
107	0xbc967892	-0.01836804
108	0xbd4bd8b0	-0.049767196
109	0xbc9b29ab	-0.018940767
110	0x3ddeb0a6	0.10873537
111	0x3d6b1e74	0.05740209
112	0x3b87ef46	0.0041483967
113	0x3bdcfaae	0.0067437505
114	0xbc3022f9	-0.010750526
115	0xbd8fbaa5	-0.070180215
116	0x3b429804	0.002969266
117	0xbc778c03	-0.015109065
118	0x3a4e859f	0.00078781875
119	0x3db2a2ea	0.0872248
120	0x3d021d0a	0.031765975
121	0x3d0cc803	0.034370434
122	0x3cd0cc63	0.025488084
123	0xbd80aa7c	-0.06282517
124	0xbdaf9101	-0.08572579
125	0x3dcaaf22	0.09896685
126	0xbc002ef4	-0.0078236945
127	0xbdc9db55	-0.098562874
128	0x3d1c2363	0.038119685
129	0xbcc9ee97	-0.024649901
130	0xbe207082	-0.15667918
131	0xbcbd7802	-0.023128513
132	0xbca32cb3	-0.019918775
133	0xbcf9f98a	-0.030514497
134	0xbd850cd9	-0.06496591
135	0xbd976310	-0.073919415
136	0x3c6f719b	0.014614488
137	0x3d3288a5	0.043587346
138	0x3d95a2cc	0.07306442
139	0xbdb40518	-0.08790034
140	0xbd1f1b7c	-0.03884457
141	0x3c2067ca	0.00979037
142	0x3d11537b	0.035480004
143	0xbcd49102	-0.025948051
144	0x3b379c1f	0.002801664
145	0x3cda2d88	0.02663304
146	0xbd66678d	-0.056251097
147	0x3ca7c8f9	0.020481573
148	0x3dd9bc0d	0.10631571
149	0xbc8a1836	-0.016857248
150	0xbddaa2fe	-0.106756195
151	0xbc31f030	-0.010860488
152	0xbcf162d7	-0.029466076
153	0xbd1b3313	-0.037890505
154	0xbdad41d8	-0.08459824
155	0x3d1309df	0.035898086
156	0x3cd00acb	0.025395771
157	0x3d1b2237	0.037874427
158	0xbaae3cad	-0.0013293229
159	0x3d47994a	0.048730172
160	0x3d8935c7	0.0669971
161	0xbd6538a3	-0.055962216
162	0xbd98f769	-0.07469065
163	0x3c4edae4	0.01262543
164	0xbd31dd20	-0.04342377
165	0x3dc024e9	0.0938204
166	0xbbf46b28	-0.007459063
167	0x3d6c53fe	0.05769729
168	0xbda45aef	-0.08025157
169	0x3db42c2d	0.08797488
170	0x3ddc0cab	0.10744604
171	0xbca7d7db	-0.02048867
172	0x3dd0101f	0.10159325
173	0xbcec44eb	-0.028841456
174	0xbc8ccaf4	-0.01718662
175	0x3d8451df	0.06460928
176	0xbd506c0f	-0.050884303
177	0x3bf56b02	0.007489563
178	0x3d8bb180	0.06820965
179	0xbc9f5a74	-0.019452311
180	0xbd095915	-0.03353222
181	0x3d1559f8	0.036462754
182	0xbd0b4e82	-0.034010418
183	0xba3e5654	-0.00072607887
184	0x3d46d41c	0.048542127
185	0xbd5a704f	-0.053329762
186	0x3db3a2cd	0.08771286
187	0xbcf339ac	-0.029690586
188	0x3a6824ee	0.00088556006
189	0x3db8144f	0.089882486
190	0xbd1df969	-0.038567934
191	0x3cbd87ce	0.023136046
192	0x3d5f21f6	0.054475747
193	0xbd9302ec	-0.07178292
194	0x3dbd7cbe	0.09252308
195	0xbd8f8e29	-0.07009537
196	0x3da21557	0.079142265
197	0x3d44505e	0.047928207
198	0xbd9c29b2	-0.0762514
199	0x3cf356e2	0.029704515
200	0x3da322be	0.07965611
201	0x3de71313	0.11282935
202	0xbc497812	-0.012296693
203	0xbca30454	-0.019899525
204	0xbc9ed1eb	-0.019387206
205	0xbdf82e4d	-0.12118206
206	0xba86ee72	-0.0010294451
207	0xbc9be438	-0.019029722
208	0xbdb22b7e	-0.08699702
209	0x3d4ac198	0.04950103
210	0xbd81cc93	-0.063378476
211	0x3c3342a9	0.010941186
212	0xbdaaaa1b	-0.08333226
213	0x3d1fdb2e	0.039027385
214	0xbc88bd33	-0.01669178
215	0x3cc0c00a	0.023529071
216	0x3d3580ef	0.044312414
217	0xbdcf2b74	-0.1011571
218	0x3d82e463	0.063912176
219	0x3c6c459a	0.014420891
220	0x3cdbd40a	0.026834507
221	0x3c55d44d	0.013051105
222	0x3ce4ed86	0.027945291
223	0x3c0bd351	0.0085342685
224	0x3cf38a91	0.02972916
225	0xbd9203ef	-0.071296565
226	0xbde4f174	-0.11178866
227	0x3c810fc3	0.015754586
228	0x3d2ddb4e	0.042445473
229	0xbce707f7	-0.02820204
230	0x3d263f9e	0.040588014
231	0xbd32cdb1	-0.043653194
232	0x3d825dbb	0.06365534
233	0x3c05bd7f	0.008162855
234	0x3d9d757a	0.076884225
235	0xbda6f67d	-0.08152483
236	0x3c01c244	0.007919852
237	0xbd167f56	-0.03674253
238	0x3d905f7a	0.07049461
239	0x3cbb743f	0.022882579
240	0xbd0951cf	-0.033525284
241	0x3dd049d5	0.10170332
242	0xbd4b9059	-0.049698208
243	0xbdb3a6a8	-0.087720215
244	0x3d14ef04	0.036360756
245	0x3d37f3c3	0.044910204
246	0x3e10efd7	0.14153992
247	0xbd78b1d7	-0.060716476
248	0x3d0d1b44	0.03444983
249	0xbcd0f5e7	-0.02550788
250	0x3dd52b47	0.10408645
251	0xbc5025da	-0.012704337
252	0x3d004824	0.0313188
253	0x3c56af13	0.013103264
254	0xbc4fee98	-0.0126911625
255	0x3e044d1e	0.12920043

models.0.model.9.bias f4 [32]
0	0x3b886041	0.004161865
1	0xbc26191c	-0.0101378225
2	0xbe018458	-0.12648141
3	0xbcc4293a	-0.02394544
4	0xbdbfd153	-0.09366097
5	0xbe022e31	-0.12712933
6	0xbdf5c4c3	-0.1200042
7	0xbdda88cf	-0.106706254
8	0xbd725824	-0.05916609
9	0xbe1e1b5e	-0.15440127
10	0xbe08a8f5	-0.13345702
11	0xbe27be7c	-0.16381258
12	0xbe109536	-0.1411942
13	0xbe2af9ce	-0.16696855
14	0xbe039098	-0.12848127
15	0xbe26fa6a	-0.16306463
16	0xbe38b309	-0.18037046
17	0xbdb6c784	-0.08924773
18	0xbe02258a	-0.12709633
19	0xbcfdf340	-0.03099978
20	0xbde3507b	-0.11099335
21	0xbd231bb1	-0.03982133
22	0xbdee31d1	-0.116305955
23	0xbe0a5fb7	-0.13513075
24	0xbdd4982c	-0.10380587
25	0xbde2525b	-0.11050864
26	0xbd1b9db4	-0.037992194
27	0xbe136ef4	-0.14397794
28	0xbe30c35a	-0.1726202
29	0xbdd39638	-0.10331386
30	0xbdbc16c2	-0.09184028
31	0xbe738e06	-0.23784646

models.0.model.11.weight f4 [32]
0	0x3f660845	0.8985637
1	0x3f7483da	0.9551369
2	0x3f7a18f1	0.9769431
3	0x3f7bfe43	0.9843485
4	0x3f8839fd	1.0642697
5	0x3f7ec95e	0.9952601
6	0x3f821de4	1.0165372
7	0x3f7f9fab	0.9985301
8	0x3f838687	1.027543
9	0x3f727651	0.94711787
10	0x3f719d07	0.9438023
11	0x3f81e93b	1.0149301
12	0x3f7d661d	0.9898394
13	0x3f64decd	0.89402467
14	0x3f7eac07	0.9948124
15	0x3f7e99c4	0.9945338
16	0x3f81d881	1.0144197
17	0x3f899545	1.0748678
18	0x3f7dc015	0.9912122
19	0x3f828026	1.0195358
20	0x3f715919	0.9427658
21	0x3f7bec03	0.98407
22	0x3f84ec7c	1.0384669
23	0x3f7f8c8c	0.9982383
24	0x3f7bfc66	0.98432004
25	0x3f812419	1.0089141
26	0x3f6ad988	0.91738176
27	0x3f839adf	1.0281638
28	0x3f72134b	0.9456069
29	0x3f8a9558	1.0826826
30	0x3f81dc51	1.014536
31	0x3f857acb	1.0428098

models.0.model.11.bias f4 [32]
0	0xbd5c6f0b	-0.053816836
1	0xbbde523d	-0.006784706
2	0xbd88e04a	-0.06683405
3	0xbb96fb81	-0.0046076183
4	0xbbb2d8ed	-0.0054579885
5	0x3c91e101	0.017807486
6	0x3d4c0ac4	0.049814954
7	0x3cddb1d4	0.027062334
8	0x3dd25174	0.10269442
9	0xbd812110	-0.06305134
10	0xbca5ea98	-0.020253465
11	0x3c8dd8b8	0.017315254
12	0xbcecf8e0	-0.028927267
13	0x3d4e95e3	0.050435912
14	0xbd09aed7	-0.033614006
15	0x3ca6bf84	0.020354994
16	0xbb0d04cf	-0.0021517759
17	0xbcb0cdf1	-0.021582576
18	0x3a9a906f	0.0011792312
19	0x3cb33929	0.021877842
20	0x3a89e0dc	0.0010519284
21	0xbbc001db	-0.005859596
22	0x3c8adbb2	0.016950462
23	0xbd15a9db	-0.03653894
24	0xbd10535b	-0.035235744
25	0x3d60b5d3	0.0548609
26	0x3d21c014	0.03948982
27	0x3d945985	0.07243637
28	0x3d4d03a7	0.05005231
29	0x3dd12db7	0.102137975
30	0x3d164a9a	0.03669224
31	0xbb51dda5	-0.003202298

models.0.model.11.running_mean f4 [32]
0	0x3e9239ff	0.28559873
1	0x3e942787	0.28936407
2	0x3e405217	0.18781315
3	0x3e80181a	0.25018388
4	0x3e42032e	0.18946525
5	0x3dfe76cb	0.12425002
6	0x3e5b154b	0.21394841
7	0x3dfb92fa	0.12283893
8	0x3e4d29e7	0.20035516
9	0x3e26d245	0.16291149
10	0x3e5c0add	0.21488519
11	0x3e1e575d	0.15463014
12	0x3e21e0f9	0.15808477
13	0x3e8f21c6	0.27955455
14	0x3e40bd7b	0.18822281
15	0x3e52cea4	0.2058664
16	0x3dbbae6d	0.091641285
17	0x3e08fb2d	0.13377066
18	0x3e166c48	0.14689744
19	0x3e5c26cd	0.21499176
20	0x3e82abe4	0.25521767
21	0x3e501f61	0.2032447
22	0x3e67757e	0.22603413
23	0x3df963c7	0.12177234
24	0x3de4b38a	0.11167057
25	0x3e14067c	0.14455599
26	0x3e70014c	0.23437995
27	0x3e04fd91	0.12987353
28	0x3e23fba2	0.16013959
29	0x3e6e5ee6	0.23278388
30	0x3e44658e	0.19179365
31	0x3e0058cd	0.12533875

models.0.model.11.running_var f4 [32]
0	0x3e2ed780	0.17074394
1	0x3e29acbe	0.16569802
2	0x3e09c929	0.13455643
3	0x3e42e22b	0.19031589
4	0x3e17c3ec	0.14820832
5	0x3d92aed7	0.07162254
6	0x3df05bf8	0.11736292
7	0x3daf74ff	0.08567237
8	0x3de52b62	0.11189915
9	0x3dddcbbd	0.108298756
10	0x3e14674f	0.14492534
11	0x3d9c3e68	0.076290905
12	0x3deb24f1	0.114816554
13	0x3e628ed7	0.22124802
14	0x3e026908	0.12735379
15	0x3e23a1ad	0.15979643
16	0x3d4077a5	0.046989102
17	0x3d8862e5	0.06659488
18	0x3dca022a	0.09863694
19	0x3e0a8853	0.13528566
20	0x3e3189fa	0.1733779
21	0x3de5292f	0.11189496
22	0x3e1cf333	0.15327148
23	0x3da4018d	0.08008108
24	0x3d9795a0	0.074015856
25	0x3dc53181	0.09628583
26	0x3e15e6b5	0.14638789
27	0x3d8201e5	0.063480176
28	0x3de9fcf0	0.11425197
29	0x3e2ef184	0.17084318
30	0x3dca7473	0.09885492
31	0x3da45be1	0.08025337

models.0.model.14.weight f4 [10, 6272]
0	0x3caaf5df	0.020869194
1	0x3d82edb3	0.06392994
2	0xbd56da9c	-0.052454576
3	0xbc5ff561	-0.013669343
4	0x3d95b77e	0.07310389
5	0xbd2dc822	-0.04242719
6	0xbd69e714	-0.05710514
7	0x3c1ae46c	0.009453874
8	0xbccd531e	-0.025064047
9	0xbcc0e708	-0.023547664
10	0x3bb9b006	0.0056667356
11	0x3c29ae1e	0.010356454
12	0x3b3e9600	0.0029081106
13	0x3cb344f1	0.02188346
14	0xbbaff24a	-0.0053694593
15	0x3c9cb8bc	0.019131057
16	0x3c849e7f	0.016188858
17	0x3c503652	0.0127082635
18	0xbc032ba7	-0.008006013
19	0xbbabf77a	-0.0052480074
20	0xbc287f08	-0.010284193
21	0xbc6bf7fa	-0.014402384
22	0xbd5017ab	-0.05080382
23	0xbd011071	-0.03150982
24	0x3d614ffe	0.055007927
25	0x3cef2a66	0.029195022
26	0x3cc4cd56	0.024023693
27	0xbc2b45cd	-0.0104536535
28	0x3b8a8882	0.004227699
29	0xbc3ae989	-0.011408218
30	0xba53abbc	-0.00080746016
31	0x3cc9ddd6	0.024641912
32	0x3bd9e9ce	0.006650186
33	0x3c1ef45d	0.009701815
34	0xbbec697c	-0.007214723
35	0x3c06d7dc	0.008230176
36	0xbc023d5d	-0.0079492
37	0x3d5792f7	0.05263039
38	0x3c8c7e04	0.017149933
39	0x3ce13188	0.027489439
40	0xbce09630	-0.027415365
41	0xbaac8652	-0.0013162589
42	0x3c8092fa	0.015695084
43	0x3d30469e	0.043036096
44	0x3ce6feac	0.028197609
45	0xbb953298	-0.0045531504
46	0xbc81022e	-0.01574811
47	0xbbe1eca1	-0.0068946634
48	0x3cafa4ea	0.021440942
49	0xbbca152a	-0.0061670737
50	0x3c3bec54	0.011469919
51	0x3d88f233	0.06686821
52	0x3cd1a8e7	0.025593234
53	0x3d02a97d	0.031899918
54	0x3d146b34	0.03623505
55	0x3bae9f81	0.005329073
56	0xbb5fc7f5	-0.0034146283
57	0xbce3eee8	-0.02782388
58	0x3cf067f0	0.029346436
59	0xbac404be	-0.0014955027
60	0xbd23d10d	-0.03999429
61	0xbc97db5c	-0.018537216
62	0x3c9fc573	0.01950333
63	0xbb83ebce	-0.004025913
64	0xbb51e7db	-0.0032029066
65	0x3a0e7af7	0.00054351933
66	0x3cd7a469	0.026323514
67	0x3c9ba722	0.019000594
68	0x3cb3efe6	0.021964978
69	0xbc195601	-0.009358884
70	0x3c0d0e28	0.008609332
71	0xb9eb8709	-0.00044923302
72	0x3d45d4ec	0.04829876
73	0xbc378ff5	-0.011203756
74	0x3cd04c56	0.025427025
75	0x3b7cfc4a	0.0038602524
76	0x3bbc064d	0.005738056
77	0x3beec65b	0.0072868294
78	0x3c053b80	0.008131862
79	0x3ca4201f	0.020034848
80	0x3b93a052	0.0045051957
81	0x3d2998f3	0.04140563
82	0xbd13581d	-0.035972703
83	0xbc340db6	-0.010989597
84	0x3cb73478	0.022363886
85	0x3c726848	0.01479537
86	0x3c7b8061	0.015350432
87	0xba088fe6	-0.0005209431
88	0xbc2feea7	-0.0107380515
89	0x3c90bcf1	0.01766822
90	0x3b125286	0.002232702
91	0xbd06443b	-0.032779913
92	0xbcf52eec	-0.0299296
93	0x3b840705	0.004029157
94	0xbca11833	-0.01966486
95	0x3ca6d409	0.020364778
96	0xbd17486c	-0.0369343
97	0xbd5f1f6a	-0.05447332
98	0x3c8e9fca	0.017410178
99	0x3bc5a85e	0.006032034
100	0x3d7ae285	0.061251182
101	0x3d2f5702	0.042807586
102	0xbcb5c111	-0.022186788
103	0xbc8a2718	-0.016864344
104	0xbd0eaccc	-0.03483276
105	0xbc4abadc	-0.012373652
106	0x3cda1f51	0.026626261
107	0xbd0fa813	-0.035072397
108	0xbd211df2	-0.0393352
109	0xbc2b20e6	-0.010444855
110	0xb98280ab	-0.00024891397
111	0xbca4e58a	-0.020128984
112	0xbce389c9	-0.027775662
113	0xbcf900b9	-0.030395852
114	0x3c530fd2	0.01288219
115	0xbcb84f6a	-0.022498805
116	0xbbbffcd6	-0.005858998
117	0xbd1e3d2b	-0.038632553
118	0xbb131160	-0.0022440776
119	0xbb9398d2	-0.0045043016
120	0xbd042c43	-0.032268774
121	0xbd2176a1	-0.039419774
122	0xbbbc9a65	-0.00575571
123	0xbd2a3027	-0.041549828
124	0xbc8db738	-0.01729928
125	0x3ca4bdc8	0.020110026
126	0xbc8e1b26	-0.01734693
127	0x3cc4451e	0.023958739
128	0xbcedac0a	-0.029012699
129	0x3c6d26ba	0.014474565
130	0x3ba64553	0.005074182
131	0xbca67353	-0.020318663
132	0xbb3f2680	-0.0029167235
133	0xbd171a0f	-0.036890086
134	0xbc6716b3	-0.014104533
135	0x3c9b7d18	0.018980548
136	0xbd9ae777	-0.0756368
137	0xbc88da46	-0.016705643
138	0x3b60691e	0.0034242342
139	0xbc8c2a6e	-0.017110076
140	0xbd12d3ea	-0.03584663
141	0xbc92dc1d	-0.017927224
142	0x3d9fb5a3	0.07798316
143	0xbd98e950	-0.07466376
144	0xbc75c637	-0.015000871
145	0xbcb4b991	-0.022061141
146	0x3d721ec8	0.059111387
147	0x3d37d5e8	0.04488173
148	0xbd4f69d9	-0.050638054
149	0x3d2bccee	0.041943483
150	0xba9ed059	-0.0012116536
151	0xbd2c65b4	-0.04208918
152	0xbc6bd15e	-0.014393179
153	0xbbaee818	-0.0053377263
154	0xbd4c4321	-0.049868707
155	0x3cfc2b69	0.030782418
156	0xbc8f823e	-0.017518159
157	0xbd358e86	-0.044325374
158	0x3d69336e	0.056933813
159	0xbcefa785	-0.029254684
160	0x3d2403aa	0.040042557
161	0xbd1869af	-0.037210163
162	0x3ba5c1b4	0.0050584916
163	0xbc2fbd53	-0.010726291
164	0xbcdfb1de	-0.027306493
165	0xbd3eccce	-0.046582036
166	0xbcb08207	-0.021546377
167	0x3d04fcd0	0.032467663
168	0x3b67f649	0.00353946
169	0xbd6c642b	-0.057712715
170	0xbd47dc3c	-0.048794016
171	0x3ba49d95	0.005023668
172	0x3cfbca5c	0.03073614
173	0x3cfe9aa6	0.031079601
174	0x3ca281b2	0.019837234
175	0xbc9fca02	-0.019505505
176	0xbd0ba81a	-0.03409586
177	0xbd855710	-0.065107465
178	0xbba39ba0	-0.004992917
179	0xbd0d145c	-0.034443244
180	0xbd4a9b34	-0.04946442
181	0xbd0fb6b8	-0.035086364
182	0xbca070f0	-0.019585103
183	0xbc7fa927	-0.015604294
184	0xbca0c17d	-0.019623512
185	0x3d2038bc	0.039116606
186	0x3c9b056c	0.018923484
187	0x3d89880b	0.06715401
188	0x3c0995de	0.0083975475
189	0x3d60f063	0.05491675
190	0x3cbf78de	0.023373064
191	0x3b7e9968	0.0038848761
192	0xbd3e6a42	-0.046488054
193	0xbd661d4f	-0.056180295
194	0xbd8973fa	-0.06711574
195	0xbcd14caa	-0.025549252
196	0xbcfd7b6c	-0.030942641
197	0xbd4df031	-0.050277893
198	0x3c6fb2ba	0.014630014
199	0x3b21ae75	0.0024670635
200	0xbc768be6	-0.015048003
201	0xbc819164	-0.015816398
202	0x3d3c41ac	0.045961067
203	0x3a23a79e	0.00062429335
204	0x3cddfe80	0.027098894
205	0xbc4a5592	-0.012349503
206	0x3c9225c7	0.01784028
207	0xbd68dd45	-0.056851644
208	0xbd35b4ea	-0.044361986
209	0x3d0bc2fc	0.0341215
210	0xbd2412e0	-0.040057063
211	0xbcbabd62	-0.022795383
212	0xbbb27dfe	-0.0054471483
213	0x3ca4460e	0.020052936
214	0x3cda19d3	0.026623642
215	0x3c584777	0.013200632
216	0xbb4db1ec	-0.0031386567
217	0x3d845b62	0.064627424
218	0x3d2e1a2a	0.04250542
219	0x3d8420da	0.064515784
220	0x392a46f4	0.00016238895
221	0xbc7571f9	-0.0149807865
222	0xbd1c7122	-0.03819383
223	0x3c19cf0e	0.009387745
224	0xbd4e8502	-0.050419815
225	0x3cd9816a	0.026550967
226	0xbc7127ad	-0.014718932
227	0x3ba55796	0.0050458414
228	0x3bb34b82	0.0054716477
229	0xbbe15276	-0.006876285
230	0x3d248f83	0.040175926
231	0x3d39e9f7	0.045389142
232	0x3d6c56de	0.05770003
233	0x3cff4408	0.03116037
234	0x3ca0e85f	0.019642053
235	0x3b6557b6	0.0034994907
236	0xbca6a263	-0.020341104
237	0x3cc03839	0.023464309
238	0xbc0efb48	-0.008726902
239	0x3caca7ed	0.021076167
240	0xbcdc57de	-0.026897367
241	0xbd04d63b	-0.03243087
242	0xbc41f910	-0.011839166
243	0xbcc97a1d	-0.024594361
244	0x3cd2bcc3	0.025724774
245	0x3d6c7b4c	0.057734773
246	0x3c0b4cb7	0.008502177
247	0x3d445287	0.047930267
248	0xbd03c9bc	-0.03217481
249	0x3c50e001	0.012748719
250	0xbcfe36b9	-0.031031953
251	0x3d149204	0.036272064
252	0xbc3b3a9b	-0.011427547
253	0xbc391dc6	-0.011298602
254	0x3be17944	0.006880911
255	0xbb8aa7c2	-0.004231424

models.0.model.14.bias f4 [10]
0	0x3c1ac0cb	0.0094453795
1	0xbb6f2167	-0.0036488415
2	0xbcf437c4	-0.029811747
3	0xbcd53758	-0.026027367
4	0xbcac25e2	-0.021014158
5	0xbc9fdfb5	-0.019515852
6	0x3c169699	0.009191179
7	0x3d5c5874	0.053795293
8	0x3cd61c75	0.026136616
9	0xbcccd8ab	-0.02500566

models.1.model.0.weight f4 [16, 1, 3, 3]
0	0x3ddb3114	0.1070272
1	0xbe9d8cf3	-0.30771598
2	0xbdb4d5c3	-0.08829834
3	0xbc85a4dc	-0.016313963
4	0x3e4c048b	0.19923608
5	0x3e734c76	0.23759636
6	0x3e9474a3	0.28995237
7	0x3e816824	0.25274765
8	0xbea51604	-0.3224336
9	0x3d49a2b6	0.04922744
10	0xbe0cccad	-0.13749953
11	0xbd8ebca9	-0.06969578
12	0x3e45a5a1	0.19301464
13	0x3e97fc62	0.2968474
14	0xbe4c78ad	-0.19967909
15	0x3d8aad27	0.067713074
16	0xbda0b5b4	-0.07847157
17	0xbd08fe2a	-0.033445515
18	0x3e7da62c	0.24770421
19	0xbdb5400e	-0.08850108
20	0xbe44e457	-0.1922773
21	0x3d43cbec	0.047801897
22	0xbeb32496	-0.3498885
23	0x3e818370	0.2529559
24	0xbe177111	-0.14789225
25	0xbc87cb60	-0.016576469
26	0xbe318530	-0.17335963
27	0x3e8f58d3	0.27997455
28	0x3e7446b8	0.23855102
29	0xbe198d9f	-0.1499543
30	0xbe5429c4	-0.20719057
31	0xbe074ec8	-0.13213646
32	0x3e1bc99e	0.1521363
33	0x3dc52259	0.09625692
34	0x3e3c3e7a	0.18383208
35	0xbe27024f	-0.16309474
36	0xbe4d84c4	-0.20070177
37	0xbd398ae8	-0.045298487
38	0x3e4d05f7	0.20021807
39	0x3e2a565a	0.16634503
40	0x3e6bc250	0.23023343
41	0x3d12db9b	0.035853963
42	0xbbd954aa	-0.006632407
43	0x3d57c82b	0.05268113
44	0xbdc73f98	-0.097289264
45	0xbdd3b9ef	-0.103381984
46	0x3e0b34c7	0.13594352
47	0x3cc8c7a5	0.02450926
48	0xbe262cfd	-0.16228099
49	0x3e55e46d	0.20887919
50	0x3e7f82cf	0.24952243
51	0xbe2f8666	-0.17141113
52	0x3e7e03ff	0.24806212
53	0xbea1847b	-0.31546387
54	0x3eaca2cd	0.33717957
55	0xbb39071b	-0.0028232995
56	0x3e9602bd	0.29298964
57	0xbe7ede2d	-0.24889441
58	0xbe9cb339	-0.30605486
59	0x3d96c4c3	0.07361748
60	0x3e143a9d	0.14475484
61	0xbdb1cd97	-0.08681791
62	0x3d192ad0	0.037394345
63	0x3e68927d	0.22712131
64	0x3dadc646	0.08485083
65	0x3e0422c9	0.12903894
66	0xbc30fbe6	-0.010802245
67	0xbd5cb602	-0.053884514
68	0xbe91b212	-0.2845617
69	0xbe3e0426	-0.1855627
70	0xbe7a0270	-0.24414992
71	0xbea94cb0	-0.3306632
72	0x3d08be58	0.03338465
73	0x3df951b1	0.121737845
74	0xbe656440	-0.22401524
75	0x3e191e18	0.14952886
76	0x3c914421	0.017732682
77	0x3c681f1f	0.014167576
78	0xbe498763	-0.19680552
79	0xbe0e7323	-0.13911109
80	0x3e640b43	0.22269921
81	0x3e275f32	0.16344908
82	0xbe204c29	-0.15654053
83	0xbe8524eb	-0.2600473
84	0x3e113496	0.14180216
85	0x3c5a6fd6	0.013332328
86	0x3dc3f857	0.095688514
87	0x3e936f27	0.2879574
88	0xbd3b1968	-0.045678526
89	0x3e525e94	0.20543891
90	0xbe388208	-0.18018353
91	0x3e941df2	0.28929096
92	0xbe487916	-0.1957744
93	0x3d865429	0.06559021
94	0x3b4f58cb	0.0031638618
95	0x3e0332f1	0.12812401
96	0x3db44543	0.08802273
97	0xbe7aa9d4	-0.24478847
98	0x3e679930	0.2261703
99	0xbe1736b7	-0.14766966
100	0xbe39a1ab	-0.18128078
101	0xbd47604f	-0.04867583
102	0xbe5576d9	-0.20846118
103	0xbe8d2dc8	-0.2757399
104	0xbd2f8afe	-0.042857163
105	0xbe0c7dbc	-0.13719839
106	0xbea5485a	-0.32281762
107	0xbdd41b60	-0.10356784
108	0x3e6ff5ed	0.23433657
109	0xbd0699f3	-0.03286166
110	0xbe2ab13c	-0.16669172
111	0xbeae3dd3	-0.34031543
112	0xbdbe7b35	-0.093008436
113	0xbe0b6cb6	-0.13615689
114	0xbe986408	-0.29763818
115	0xbe658e55	-0.22417577
116	0x3d44be60	0.04803312
117	0x3e53e5b8	0.206931
118	0xbeb36492	-0.35037667
119	0xbe256498	-0.16151655
120	0x3e7628b1	0.2403896
121	0x3e207478	0.1566943
122	0x3e790392	0.24317768
123	0xbda410a7	-0.08010989
124	0x3ea9d508	0.33170342
125	0x3e321def	0.17394231
126	0x3c106d1c	0.008815076
127	0xbe8dffcd	-0.27734223
128	0x3d27bf79	0.040954087
129	0xbd9210be	-0.071320996
130	0x3e206777	0.15664469
131	0x3d00790d	0.031365443
132	0xbea08a37	-0.3135545
133	0xbe7eac7e	-0.24870488
134	0xbea99717	-0.33123085
135	0x3dfa2ced	0.122156
136	0xbd3b1103	-0.04567052
137	0x3d891e5f	0.06695246
138	0xbe4352ff	-0.19074629
139	0xbe357964	-0.17722088
140	0xbe4421b6	-0.19153485
141	0x3e9165a6	0.28397864
142	0xbca1120d	-0.019661928
143	0xbea2dccf	-0.3180909

models.1.model.0.bias f4 [16]
0	0x3e4bc955	0.19901021
1	0xbe56c7f5	-0.20974715
2	0x3da7d1bb	0.081943
3	0xbe7ca323	-0.24671607
4	0xbe8490bc	-0.25891674
5	0x3e1b5964	0.15170819
6	0x3e673715	0.22579606
7	0x3bb2b8fe	0.0054541817
8	0xbea07218	-0.31337047
9	0x3dfbebb8	0.12300819
10	0xbe4c91ed	-0.19977541
11	0xbe7702f3	-0.24122219
12	0x3d8ce770	0.06880081
13	0xbd8fec19	-0.07027454
14	0x3ca50086	0.020141851
15	0xbd10ba77	-0.035334077

models.1.model.2.weight f4 [16]
0	0x3f6b3fc0	0.9189415
1	0x3f79c30e	0.97563255
2	0x3f7d0acd	0.98844606
3	0x3f779dca	0.9672514
4	0x3f7d43ae	0.98931396
5	0x3f6a5199	0.9153076
6	0x3f785046	0.9699749
7	0x3f7b9d75	0.98287135
8	0x3f787cea	0.97065604
9	0x3f6a5699	0.9153839
10	0x3f87db69	1.0613834
11	0x3f7b80ab	0.98243207
12	0x3f80b317	1.0054654
13	0x3f5edcb7	0.87055534
14	0x3f84b147	1.0366601
15	0x3f89d3f7	1.0767812

models.1.model.2.bias f4 [16]
0	0x3da0a298	0.07843512
1	0x3d0d6374	0.034518674
2	0xbd8167a9	-0.063186
3	0x3d68016e	0.05664199
4	0x3cfbd522	0.030741278
5	0xbd9821df	-0.074283354
6	0x3d89e18c	0.06732473
7	0xbca2c4f9	-0.019869315
8	0x3cbc9b4d	0.023023272
9	0x3c90815e	0.017639812
10	0x3b5ed50a	0.0034001493
11	0x3da791f4	0.08182135
12	0x3d220ead	0.039564777
13	0xbd9a7719	-0.07542247
14	0x3ae147d7	0.0017187548
15	0x3b5b95ef	0.0033506115

models.1.model.2.running_mean f4 [16]
0	0x3eb23bfe	0.34811395
1	0x3c0a191f	0.008428841
2	0x3d2fd634	0.04292889
3	0x3cb51398	0.02210407
4	0x3d007a42	0.031366594
5	0x3e5ebfab	0.21752803
6	0x3ea18a89	0.31551006
7	0x3c9c8b0c	0.019109271
8	0x371defb9	9.413744e-06
9	0x3e9b42be	0.30324358
10	0x3b4ea210	0.0031529702
11	0x00000000	0.0
12	0x3cf715dc	0.03016179
13	0x3e8ba9ab	0.27277884
14	0x3bddb3ff	0.006765842
15	0x3bb3c455	0.005486051

models.1.model.2.running_var f4 [16]
0	0x3d2c7952	0.042107888
1	0x3a7b5d55	0.00095887977
2	0x3b3aa45b	0.002847931
3	0x3aca9bce	0.001545781
4	0x3b19e76e	0.002348389
5	0x3c8fc771	0.017551156
6	0x3c9fcb98	0.01950626
7	0x3b69bb8e	0.003566477
8	0x34de8ea5	4.145451e-07
9	0x3d4ae51a	0.049534895
10	0x395580cd	0.00020361245
11	0x00000004	6e-45
12	0x3ac4d660	0.0015017502
13	0x3dba5749	0.090986796
14	0x38d5928d	0.00010183929
15	0x3a09b590	0.000525319
