pretrained/mle_100.pt (torch, 360904 bytes, 6 tensors)

linear.0.weight f4 [100, 784]
00000000: d479 b5bb 6845 b1bc fbd3 353d c760 333e
00000010: d438 4c3e 643d 0c3d 26c1 a0bc 1377 7ebd
00000020: 0eaf 503d ab0d 373d b9c7 9dbd 3d72 b9bb
00000030: 094b 123e 55e9 43be 530c a3bd 1d5c 0d3e
00000040: 544f a03a 3671 743c 9d6e d13c 52db 14be
00000050: e2e8 003c ddc7 4a3c 93e4 66bd 236d b8bc
00000060: 7d5b 54bd eefd a7bd bca5 16be 39ed e93c
00000070: 5c05 523c e218 9f3a e873 c5bc 6ba3 c5bd
00000080: b4c8 a63b d19c 293d 15da c9bb 6b69 903d
00000090: 5ec8 9ebc 4b40 823c 7db1 9e3c 30a2 f53c
000000a0: 2dec 06bd bc4e 67bd 4db5 473d 2c34 45bc
000000b0: 8584 bdbb 58e1 f43c 6623 5e3d ea0c 39bc
000000c0: 1602 6ebc 751d 813d fd51 43be 9744 6e3d
000000d0: 682e f13b 9e7b dcbd b1b8 f13c ddb4 6dbd
000000e0: d7a1 3ebd ee4a 5e3d a243 143d 7db0 63bd
000000f0: 07a3 7b3c 967e 973d d099 3c3d e6ea 3d3d
00000100: 5294 c83d 6503 3abe 5133 703d eda9 143e
00000110: c155 a1bb 2fd3 283d 91af 20be 177f 943b
00000120: 2f60 44bd 7e7a 1dbc baf0 f8ba e787 10ba
00000130: 04fa 333c 83a8 17bd 960c 3e3d 2989 113d
00000140: b68b 81be fdfa 533e 91d4 33bd 202f 673d
00000150: 42be 07bd 1009 a93a a8d3 bf3a d82c 233c
00000160: 6fcc a43c 5192 db3d 0df4 383d d129 2c3d
00000170: e9e1 923c cdf8 03be e102 84bd 5647 953c
00000180: 08f7 043d 23fe 5fbe bc22 57bd 9264 0cbe
00000190: 3038 053e 98ed 9dbe 6c73 683d 8721 543d
000001a0: 4a14 ad3d 8174 1bbd 3a01 49bc aae5 ae3c
000001b0: 4bb0 28be 19d8 e73c d482 373d dd6b e2bd
000001c0: cfe3 fabb ba82 0d3e 9345 1abe 194a 2e3e
000001d0: ec4d 9d3d 005d 6abd a4c0 a4bd 0456 1b3d
000001e0: c67b 58bc 3590 8c3e de21 063c f9d5 81bc
000001f0: 4849 4abb 8521 cf3c e986 01be cc6b 86bc
00000200: 7c5e 443d de85 eb3c 33ec 16be 8890 493d
00000210: 86cb 99bd 3da4 50be 89c3 8abc 0436 1cbd
00000220: c521 c83c 5eca 84bb c4be 103d b92d cb3c
00000230: 3d3d 1ebe f917 153d 979c c0bd 4d27 383e
00000240: c3e7 703d 30dd a3bd fe40 ac3d 3774 fd3d
00000250: 9b3c acbe 9aa8 20bd 29ba 513c 2cfc 123e
00000260: 83b7 853d 8193 463d 39ac 0dbc 0dcf 413d
00000270: 2b98 0fbc 9134 a9bc 4982 ed3d 9ef5 36bc
00000280: 4430 69bc 8a46 b93b 92fe 0c3d a40b 9fb9
00000290: 1279 2cbd 7835 463c ffef 39bc d2d6 6b3c
000002a0: 22f5 fa3d d853 493d 9436 8b3e c1fb 3bbe
000002b0: 8af6 653c 4a1c 5cbe 2bdf db3c caee 2a3e
000002c0: 4b58 32bd f8dc e83c ddf3 a33c 4195 f33c
000002d0: 660a 6e3e 7f02 7bbd 5718 883c ca1f 2d3e
000002e0: 5202 17be 9948 f73c 18f4 8abb bb62 b23c
000002f0: 30a4 1cbe d2e6 b7bc 15d4 86bc 971c 163e
00000300: 787b 65bd 7eb7 ab3d ed69 1c3b 7c91 9bbc
00000310: d0f6 5a3d 949e dabc b8f0 f4bd 6c5e 613b
00000320: 76e2 623d e3e2 d7bd c503 c13d 0340 893d
00000330: c1f7 b03b d347 05be ac75 053e b66d 553d
00000340: 9ca2 d5bc 7005 0cbc 7fcc 54ba 03f8 203e
00000350: 5282 073e 0ab7 ab3d 9649 bdbc de99 c33c
00000360: 70aa 48be 7e52 f13d 755a c33e d4fb c73c
00000370: 1a94 50be 4708 f4bd beb4 113e 9aa1 3a3d
00000380: 23d1 a63d fb30 cc3d d444 cbbc cf51 df3d
00000390: 2542 9f3d ad72 56bd 8b57 a7bd 3b0f 7abd
000003a0: 167b c9bd 4fd5 94bd d957 c0bd ac83 39be
000003b0: d2e9 28bd 5e69 003e ffce 603d 9c7d 09bd
000003c0: 4142 a93c 475f 56bd ae56 d0bd 4932 da3c
000003d0: 9ed1 86bd 338e 7abd 2091 203d 460d 6abc
000003e0: cffe 1abc 40a2 3a3d f6c5 353e 15d2 c53c
000003f0: 5a6c 1d3e 3f66 1d3d 594d 3e3d 5ef7 523e
-0.0055382047 -0.02163954 0.044391613 0.17517386 0.19943553 0.034238234 -0.01962335 -0.062125277
0.050948195 0.04469077 -0.0770411 -0.00565937 0.14286436 -0.19131978 -0.07961335 0.1380467
0.0012230673 0.01491957 0.02556544 -0.14536789 0.007868024 0.012376753 -0.05637033 -0.022512978
-0.051845063 -0.0820273 -0.1471166 0.0285555 0.012818661 0.0012138153 -0.02410312 -0.0965031
0.0050898436 0.041409317 -0.0061600306 0.07051357 -0.019382652 0.015899798 0.019371742 0.029984564
-0.03294008 -0.05647157 0.048756886 -0.0120363645 -0.00578362 0.029892609 0.054232977 -0.011294583
-0.0145268645 0.063044466 -0.19074245 0.05817088 0.0073602684 -0.107657656 0.029507013 -0.058033813
-0.04654106 0.054270677 0.036197312 -0.055588234 0.015358693 0.07397191 0.046045125 0.046366595
0.09793915 -0.18165357 0.05864269 0.14517947 -0.0049235527 0.041217025 -0.15691973 0.004531752
-0.04794329 -0.009611724 -0.001899264 -0.0005513415 0.010984901 -0.03702594 0.04639872 0.035531197
-0.25301903 0.20701213 -0.04390389 0.056441426 -0.03314043 0.0012896378 0.0014635222 0.009959422
0.020117013 0.10721267 0.04515462 0.042032067 0.017929988 -0.12887879 -0.064458616 0.018222492
0.03246215 -0.21874289 -0.05252336 -0.1371024 0.13009715 -0.30845332 0.0567507 0.051789787
0.084511355 -0.037952904 -0.012268359 0.021349747 -0.164735 0.028301286 0.0448025 -0.110557295
-0.0076565514 0.138194 -0.15065603 0.17020454 0.07680878 -0.057217598 -0.08044556 0.037923828
-0.013213104 0.2745377 0.0081867855 -0.0158491 -0.0030866433 0.025284538 -0.1264912 -0.016408823
0.04794167 0.028750356 -0.1473854 0.0492101 -0.07509522 -0.20375152 -0.016938942 -0.03813745
0.024430165 -0.0040524444 0.03533818 0.024802076 -0.15453048 0.036399815 -0.09404867 0.17983742
0.058814775 -0.080011725 0.08410834 0.12375682 -0.33639988 -0.03922329 0.012800732 0.14354008
0.06529143 0.048480514 -0.008647018 0.0473166 -0.008764307 -0.020654948 0.115971155 -0.011166958
-0.014232699 0.005654161 0.034422465 -0.00030335516 -0.04210765 0.012097709 -0.011348723 0.014394479
0.122537866 0.049152225 0.27190077 -0.18357755 0.01403583 -0.21495166 0.026839813 0.16692653
-0.043541234 0.028425679 0.020013744 0.029734256 0.23246154 -0.061281677 0.016613169 0.16906658
-0.14746979 0.030185984 -0.004240524 0.021775594 -0.15297008 -0.02244893 -0.01645855 0.14659344
-0.056025952 0.08384608 0.0023866848 -0.01899027 0.053458035 -0.026686944 -0.11959976 0.0034388555
0.05539175 -0.10541322 0.09424547 0.067016624 0.0054006283 -0.1301568 0.1303317 0.05210658
-0.026078515 -0.008546218 -0.00081176305 0.15719609 0.13233307 0.08384521 -0.023106378 0.02387708
-0.19596267 0.11783312 0.3815495 0.024412073 -0.20368996 -0.11915641 0.14229104 0.04556427
0.081453584 0.0997028 -0.024813093 0.109042756 0.07776288 -0.052355457 -0.08170994 -0.06104968
-0.0983793 -0.07267248 -0.093917556 -0.18116635 -0.041238613 0.12540194 0.054884907 -0.033567056
0.020661475 -0.052336957 -0.10172783 0.026635306 -0.0658295 -0.061170768 0.039200902 -0.014285391
-0.009460165 0.04556489 0.17751297 0.024148026 0.15373364 0.038427588 0.046460483 0.20602176

linear.0.bias f4 [100]
00000000: a69f d2bc bdc4 693c f47a 33bd cb4f e13c
00000010: a300 433d 6398 d53c e0ec 153d e9e1 3abd
00000020: b0c1 afbc efa9 ee3c 869e 44bd ebbf 66bc
00000030: 87f7 113c e023 0abd 28de 163b 395c a53b
00000040: 876f 193d 6351 b63b 3ddd 673d f3b3 ce3c
00000050: 2819 77bc f937 573d 1942 00bd 811e 0fbd
00000060: 87dc 39bb a853 efbb afd9 03bd d724 9cbc
00000070: 07ed 8b3c 0267 3ebd 1f51 4f3c aa8f b53b
00000080: 6dce e3bc d59e b13c 3eac 2e3c 7e1d 2a3c
00000090: 11dc ce3c e261 95bc 7957 d6bb c8b8 11bd
000000a0: a483 db3c 2eea 29bc 10ee 903c d6a2 8fbc
000000b0: d1d5 41bc f894 ab3c c767 19bc b4ff d63c
000000c0: b77e a2bc 7bec 19bd 7b7a 393c 62a0 8739
000000d0: d40a bcbc 69e5 44bc ffdd 633c 8408 093d
000000e0: 1a95 bf3c fece e6bc 13f4 d8bc f6e1 0ebd
000000f0: d3b3 1ebd e491 4bbc 1ca4 48bc a9c4 6c3b
00000100: 256e e63c bf69 843c 9d7c e63c f512 8abc
00000110: 5aa1 213c 7b18 02bd 8fd5 55bd f7ef 0bbd
00000120: 84c8 24bb 05ba 00bc 2ba9 86bb 9736 a6bb
00000130: d5cc b3ba 076e 9c3c e0e3 91bc 064e 183d
00000140: 8b33 eab8 1253 c1bc c12c c63c 691d 1b3b
00000150: 8193 21bd bdc4 1a3c af3b 3ebd 30b4 113c
00000160: c173 24bd 5021 be3b f620 adbc 0bf4 a7bc
00000170: 540e b3bb c3b9 babc 0b72 0e3d 89b3 f53b
00000180: f705 2b3b 653c 003d 68de c7bb 580e 11bd
-0.025710892 0.0142680975 -0.04381843 0.027503869 0.04760803 0.02607364 0.036602855 -0.0456256
-0.021454662 0.029133765 -0.048002742 -0.014083843 0.008909113 -0.03372562 0.00230206 0.005046394
0.037459876 0.0055639013 0.056607474 0.02523229 -0.015081681 0.052543614 -0.031313036 -0.0349412
-0.0028360204 -0.007303674 -0.03219002 -0.019060535 0.017080797 -0.046484955 0.012653618 0.0055408077
-0.027808392 0.021682182 0.010661183 0.010383008 0.02525142 -0.01823515 -0.0065411893 -0.03557661
0.02679617 -0.010370774 0.017691642 -0.0175337 -0.011830763 0.020945057 -0.009363121 0.026244976
-0.019835813 -0.03757904 0.0113207055 0.000258687 -0.022954382 -0.012017586 0.013907908 0.033455387
0.023386527 -0.028174873 -0.026483571 -0.034883462 -0.038745712 -0.01242492 -0.012246158 0.003612796
0.028128693 0.016163705 0.028135592 -0.016854743 0.009865129 -0.031761628 -0.05220562 -0.034164395
-0.002514393 -0.0078568505 -0.004109522 -0.0050724256 -0.0013717661 0.019095434 -0.017808855 0.037183784
-0.0001116759 -0.023599181 0.024191262 0.0023668653 -0.03944731 0.00944632 -0.046443637 0.008893058
-0.040149454 0.005802311 -0.021133881 -0.020502111 -0.0054643545 -0.022793656 0.03477673 0.007498209
0.0026096085 0.031307597 -0.006099511 -0.03541407

linear.2.weight f4 [100, 100]
00000000: 4b0c 96bd abd9 ad3d d2b4 933c 1614 f53d
00000010: a1dc 8abd cbea debc 0aed adbc a136 6f3b
00000020: f554 09bd 8b0e 343d ba40 4abe 8cac 09be
00000030: 7703 92be f453 77bd d0b8 07be c323 233d
00000040: 4b04 17bd 0024 b7bc cb4b e2bc e880 8e3d
00000050: 8dda 01bd c518 87bc 6474 e3bd 9249 16be
00000060: cbd6 26be ce84 08bd d036 8e3d 400b 1c3d
00000070: 82e9 f13d 7bb0 6ebd 1de3 7fbe eb8c 293d
00000080: e633 883d 823b 043e af1d aebd 21a7 13be
00000090: e53a fd3d 004d 513c d044 45be 5918 b4bc
000000a0: 0494 f73a 64d2 02be d9e4 c53d 7986 333d
000000b0: fb95 e8bc 547c 65bd d908 4f3c 84a6 ea3d
000000c0: 4d1e f73d e671 c63a bb3e fcba 9f8e debb
000000d0: 2e68 03be ad4b cabd 156e 47bd 5ce6 fabc
000000e0: 1729 b83d 21a2 2c3d 1fa9 1fbe 404a 8cbd
000000f0: f334 bbbd 80c8 babc 26ff 5cbd e744 18be
00000100: 6b05 3fbc 7361 d8bd ec4e 75bc 568b f3bd
00000110: 34d3 563c 7de6 32bd d516 19be b538 5b3d
00000120: 1966 a63d ce2f 94bd 54c3 9abd 0fe3 f7bc
00000130: 2f2f 8cbd 2a86 8abd bd52 f2bc 130d d5bd
00000140: dd15 efbd 4ed1 cc3d 635e c7bd 872c 903d
00000150: 6ee9 cabd b571 f0bd 60e7 2c3d 700e 8dbd
00000160: 9ec4 97bd 5f57 b2bd 73cc 823d 70ad 18be
00000170: 1dbe e2bd b2ee 7bbd ef0c 443b 0183 853c
00000180: c173 1dbe 4014 04bd 97e3 17be 2dd5 90bd
00000190: a04d 543c c132 72bd eada 393d fa1b da3c
000001a0: d8e7 0f3d 020f 9b3d b2bc 953d c340 a73e
000001b0: 5b96 0cbd 8731 3f3e f460 dd3d b0d2 ba3d
000001c0: 1e06 de3d 2956 a33d 6345 723e 9963 853d
000001d0: 7b99 92bd 3480 3b3d 7616 59bd 5656 53bd
000001e0: d5a4 9bbd d0c2 003e 52dd 03be 0924 c13d
000001f0: 8a49 303e 46b4 903d 841a 6fbe b41d 10bd
00000200: bd8a 223d 3d29 6abd febd 9a3c 1533 0abc
00000210: b89a 923e ad3d d7bd ac5b 523e b372 413e
00000220: 9252 7bbc 0af8 e4bb 14a1 d9bd beee 73be
00000230: 5a33 68be 4dbb c03d 471a 233e 9589 ec3d
00000240: 3869 04be cdee 5d3e c309 863d 6786 223e
00000250: aa0a 80be 79b0 f2bd f25d 373d b4b1 433d
00000260: d6ef 7f3e dab7 a33e 90bc 143e 7215 f2bd
00000270: d1d0 d3bc 5385 b93e 0081 4bbc 890e 333d
00000280: 4343 293e fdea 3c3d 3362 3bbd a3a3 0d3e
00000290: 4144 2a3d 980a 0bbe ed12 903c 278a 333c
000002a0: 4a4f 83bd be16 adbd e9f4 babc 09b4 f63d
000002b0: 6f2e 813d 4e6b 57bc 1ec8 9c3b 6c1b b9bc
000002c0: 7cb5 a53e d7b1 173e 002a 453e 344c c13c
000002d0: f20c 9ebc 1bd0 b03d 99c1 51be 7b03 c33d
000002e0: ac44 ba3e e390 e53d db18 4c3d 6762 68bd
000002f0: dada 083d b267 0cbd 095b 23be 368f 213d
00000300: 6f72 053e c71f 063d 2ad5 d13d d530 eb3a
00000310: 6614 1a3d 471e 0dbe 8bb1 c53c fd5f 28be
00000320: 4015 903d 9bc4 d2bd a35d 9a3e 17f7 543e
00000330: 0085 b63d f55a 093d fbcb 0f3d fd87 1b3e
00000340: 4112 eabd ff70 4fbc 0b26 243d 7fda c13d
00000350: 96bd c7be 67df 12be 7368 233d 3d7d da3b
00000360: 18ca dd3d 2c50 96bc 6cd8 0fbd 7b8c 873d
00000370: 7368 033e 42a5 1fbe 3767 83bc 77d5 03be
00000380: 3d52 cc3d 2542 0f3e 7976 0fbe 1bda 5dbe
00000390: 5f79 a6bc c4d7 6abe 6f00 3cbe 01d1 d73c
000003a0: 9f39 8b3e 77c5 f7bd 22c1 cd3d 53a7 393e
000003b0: e6ab 653d 6c20 b03d e14f d43d 0230 b2bd
000003c0: 0e86 0bbe 866d 113e 18c6 b73c c380 13be
000003d0: f256 e1bd ab67 313e 965b 8cbd b008 b63d
000003e0: af95 bfbc 7598 e7bd 06ed a2b9 9a26 be3d
000003f0: c801 99bb 5df1 fa3d 3848 1f3e c0ee d93d
-0.073265634 0.084887825 0.018030558 0.11966722 -0.06780363 -0.027211567 -0.021231193 0.0036501067
-0.033528287 0.04395918 -0.19751254 -0.13444728 -0.28518268 -0.0603828 -0.13254094 0.039829027
-0.03686933 -0.022356033 -0.027624032 0.06958181 -0.031702567 -0.016491303 -0.11106184 -0.14676502
-0.16292875 -0.033329777 0.069440484 0.038096666 0.11812116 -0.058273774 -0.2498898 0.041394155
0.06650524 0.12913325 -0.085017554 -0.14419223 0.12364749 0.012774706 -0.19264531 -0.021984266
0.0018888717 -0.1277557 0.0966279 0.043829415 -0.028391829 -0.05602677 0.012636387 0.114575416
0.12066326 0.0015140146 -0.0019244769 -0.006791904 -0.1283271 -0.09877715 -0.048688967 -0.030627422
0.08992212 0.042146806 -0.15591858 -0.068500996 -0.09140959 -0.022800684 -0.053954266 -0.14870034
-0.011659007 -0.10565462 -0.01497243 -0.118918106 0.013111878 -0.043676842 -0.14950116 0.053520877
0.08124942 -0.072356805 -0.07556787 -0.030259637 -0.06844937 -0.06763871 -0.029580468 -0.10402884
-0.11674092 0.10000859 -0.097348 0.07039743 -0.099078044 -0.11740438 0.042212844 -0.06887519
-0.074105486 -0.08708071 0.06386652 -0.14909911 -0.110714175 -0.061506934 0.0029914936 0.01629782
-0.15376188 -0.032245874 -0.14832912 -0.0707191 0.01295796 -0.059130434 0.04537479 0.026624668
0.035133213 0.07571222 0.073113814 0.32666597 -0.034323078 0.18671237 0.10809508 0.09122217
0.108410105 0.07975418 0.23659281 0.06513137 -0.0715818 0.04577656 -0.052999936 -0.05159601
-0.075997986 0.12574315 -0.12877396 0.09430701 0.17215553 0.070656344 -0.23349959 -0.035184577
0.039683092 -0.057168234 0.018889423 -0.0084350305 0.28633666 -0.105098106 0.20542783 0.1889141
-0.0153395105 -0.0069875764 -0.10626426 -0.23821542 -0.22675839 0.09410725 0.15927993 0.11549679
-0.12930763 0.21673127 0.06544831 0.15871583 -0.25008136 -0.11850066 0.044767328 0.047776893
0.24993834 0.31976205 0.14525056 -0.118204966 -0.025856407 0.3623453 -0.012420893 0.043715034
0.16529565 0.04612254 -0.045747947 0.13831954 0.041569 -0.1357826 0.01758715 0.010958231
-0.064116076 -0.08451603 -0.02282186 0.12046058 0.06307685 -0.013148142 0.004784598 -0.022596084
0.32365024 0.14813934 0.19254303 0.023595907 -0.019293282 0.08633443 -0.20484008 0.09522148
0.36380517 0.112092756 0.04982839 -0.05673447 0.033411838 -0.03427858 -0.15952696 0.039443217
0.13031934 0.03274515 0.10245736 0.001794363 0.03761711 -0.13781081 0.02413251 -0.16442867
0.07035303 -0.10291406 0.30149564 0.20797382 0.089120865 0.03353401 0.03510664 0.15188594
-0.11429263 -0.012661218 0.040075343 0.09465503 -0.3901183 -0.14343034 0.039894532 0.0066677616
0.10829562 -0.018348776 -0.035118505 0.066185914 0.12832813 -0.15590385 -0.016040428 -0.12874399
0.09976623 0.13990076 -0.14010037 -0.21665232 -0.020321546 -0.2293387 -0.1835954 0.026344778
0.271924 -0.1209821 0.10046603 0.18130235 0.05607214 0.08599934 0.10366798 -0.08700563
-0.13625357 0.14201936 0.022433326 -0.14404587 -0.110029116 0.17324702 -0.06853406 0.08888376
-0.023386804 -0.11308376 -0.00031075644 0.092847064 -0.004669402 0.12253068 0.15554893 0.10641241

linear.2.bias f4 [100]
00000000: bf33 b8bd 2147 e63c c2b1 8c3c ae54 32bc
00000010: a12d e0bd 5960 a6bc 3e8f ccbd 7fb0 7f3d
00000020: dbf4 533c dc83 0dbc ca68 6fbd dc67 403d
00000030: 3a59 d3bc 5b1d 9fbc f989 bc3b 480c 4f3d
00000040: 362f da3d 770c 023e 6a74 fc3d b7cf 84bd
00000050: bcc5 c53c fd56 713e 6e25 c2bd dbb9 3bbe
00000060: 92fd 273d ca9b f83d e730 4ebc 395c 0e3d
00000070: 83f6 b4bd fd48 f23d 6f92 863d 3cf7 f53c
00000080: baf9 3bbe e7b6 06be 014d 7f3b d50d 903c
00000090: 2133 943e fa68 023e d9dd 6eb9 d3a4 ddbd
000000a0: c080 2e3c 9cb5 2abd 40f4 d3bd 456e 20be
000000b0: 73c1 053e 083f 0b3e 2b54 b4bd 38e2 ed3d
000000c0: 7b24 553c 38d8 54bd 07cd 133e f80d 0d3d
000000d0: 00ec 583e 3965 2fbd 7796 1cbd 8a28 043e
000000e0: 1c99 b53d 7254 2fbe 39ce 323e 4111 12bd
000000f0: ef03 4dbb 16df ed3b 81fd 013e 02e8 c2bd
00000100: e17e 00be e881 af3d c14c 563e 25ff bd3d
00000110: c51e 233e d400 e93d 1a46 afbd fa65 82bd
00000120: 9145 a43d b366 66bd ab4b ddbc da19 9a3c
00000130: 1116 07be e091 d63d 10c8 47bd b69d 40be
00000140: 0575 c03d 877b da3b aa06 35bd c01a 833d
00000150: 4a34 493d 1dc6 9c3d 2de6 a9bd 1608 91bd
00000160: 94c7 05bd 7e40 833e d981 1a3e 0b91 74bd
00000170: cdbf 06be 45fe 663d b091 1e3e 6ed8 b6bd
00000180: 48d3 05bd fd2a 87bc a6b5 163e b519 ca3d
-0.08994245 0.028110089 0.017174605 -0.010884447 -0.10946203 -0.020309614 -0.09988259 0.06242418
0.012936796 -0.008637395 -0.058449544 0.046974048 -0.025799382 -0.019423177 0.0057537523 0.05054882
0.10653536 0.12700067 0.12326892 -0.06484931 0.024142139 0.2356834 -0.094797954 -0.18332617
0.041013308 0.121390894 -0.012584901 0.03475592 -0.08836081 0.11830328 0.06570899 0.030025117
-0.18356982 -0.13155709 0.003895581 0.01758472 0.28945258 0.12735358 -0.00022780093 -0.10822453
0.010650814 -0.041677102 -0.10349321 -0.15667064 0.13062076 0.13598263 -0.08805116 0.116154134
0.013009186 -0.051964015 0.1443368 0.03443715 0.21183777 -0.042821143 -0.038229432 0.1290609
0.08867094 -0.17122057 0.1746148 -0.035660986 -0.0031282862 0.00725926 0.1269436 -0.09516908
-0.125484 0.085696995 0.20927717 0.092771806 0.15929706 0.11377111 -0.08558293 -0.06367107
0.08021081 -0.056250285 -0.02701362 0.018811155 -0.13192011 0.10477042 -0.04877478 -0.18810162
0.0939732 0.0066675576 -0.04419581 0.064015865 0.049122132 0.076549746 -0.08295856 -0.070816204
-0.032661036 0.2563514 0.15088595 -0.059708636 -0.13159104 0.056394834 0.15485263 -0.089279994
-0.032672197 -0.01649999 0.14717731 0.098681845

linear.4.weight f4 [10, 100]
00000000: 090a d2bd 9b82 8bbd 859f d2be 940c ba3c
00000010: 7b79 c43d 9142 05bd 2eaa c0bd be96 71be
00000020: d51a d93d e06d 4c3e e79c ecbd b76d 3b3e
00000030: 33ed 84be 2b1d d63c 1e81 263e aff1 073e
00000040: 67ab cf3c 1d30 0bbe a9a2 60be 44ab 2d3e
00000050: 9633 2a3e 9061 c0be 051b 783e af1c b93c
00000060: de0b 273e ed82 79be 711a f33d d044 fcbc
00000070: 9218 4bbe 4fa7 07bf edc6 bbbe 5da2 a4bd
00000080: 8728 913e 5f48 a6bc f3a4 afbe b1a2 0c3e
00000090: bfa4 1fbe 9225 6fbe 036b 46be ec9f 183d
000000a0: c830 ccbe 72e0 e03c 4f94 b8be 8c71 f0be
000000b0: 4572 3e3e 5927 19be b4e1 5bbd 980d e5be
000000c0: 362e 1a3e 1123 9a3e abee 123b 1e62 87be
000000d0: 99b7 39be 26fb 86bd b5b1 4c3e 9dd8 c63d
000000e0: 5383 a73d d5d5 bc3d b962 57be cccd 453d
000000f0: 9b4e 9fbe 5d49 893d c1da 0c3e cdf8 633e
00000100: 2c8a 49be eb7e d9b9 a56e 003d 2811 79bc
00000110: f66c b7be 26f8 eabd da15 0d3e 0f6c b1bd
00000120: c2a7 b2be 67ce 16bc ecc1 153e f5ec 093e
00000130: 53b9 1dbf 168d d03d 93a9 133c 5df3 c4be
00000140: 34f3 4c3e 30c9 babd 8907 86bd 7983 8f3d
00000150: 8bf5 ca3d def4 8c3c d81a 9fbe 21df 2e3e
00000160: 09ff 40bd 5914 91bd a091 c2be 3b4b ffbd
00000170: b466 bd3d c91d 663e ba6b 793b 98ce b3be
00000180: bbf9 bb3d a925 86be 9cac 843d 276b 0f3e
00000190: e7a7 88bc c159 3cbe 8d03 abbd 266c 86be
000001a0: dcc6 cdbd 0875 17bb be65 873d a228 973d
000001b0: 47aa 563d 18c3 143e 240a c33d 4bcd 2abe
000001c0: 5e6f 043e 2b8d 6dbe 5afc 1cbe 5716 a9bd
000001d0: 5412 95be d570 35bd bbea 043e a69e 3cbd
000001e0: 40d6 a23e b8a5 adbd 2328 b93e 8498 71be
000001f0: 18c4 613d 47d4 5b3d 0eb5 753e 1558 3a3d
00000200: d77f a03d c724 593e 3ba2 0d3e b5a2 88be
00000210: 68e3 68be 464b cd3d 53aa 553d 32bd 65be
00000220: 5f97 3cbe eb30 383e 105e e13d 6ebe cebc
00000230: 5c61 b03e 7491 1dbe ea72 30bd b3f9 1d3e
00000240: e5ad 063e 82d3 b9bd b8b1 8dbd 11b0 05bd
00000250: 1994 02be 2bf7 e4be 09ba 8dbe 0f9c 89be
00000260: 001a 5ebc a1ae a0be 12bd 403d fe68 4f3d
00000270: 9d0e b5be 0996 d73d 8b8b 3cbe ef8e a83b
00000280: 4ad4 0cbe 6d53 abbd 3a25 a4be 2930 933d
00000290: 02a9 9d3d c4d3 bbbc a15c 033d 5bf5 883d
000002a0: 0413 dd3c e69d 87be 1e1e 173e 6209 9a3e
000002b0: 63f9 a13e 41b3 5bbd e6cb 323e 47df 03be
000002c0: 0085 adbe 1d18 373e 2f57 923e e820 2b3e
000002d0: 9832 3b3d 253b c53e d7e9 893e 4c65 43be
000002e0: 88ab 293e 3ff3 1cbd 5149 d3be c215 0a3e
000002f0: 9970 d53d 3b4b fd3d e3e3 5c3e 372e 1a3d
00000300: 3684 c1be 819e f8be 501f e53b f41a 45be
00000310: 761a edbe fb38 04be 9690 ecbe 4412 e23d
00000320: 5f5c a5bb 9a9b 7cbd eb37 84be 01bf 4e3e
00000330: a815 5a3d 5b99 80bd 1b62 213c 111b bc3b
00000340: 65f0 7cbe b2ac c43b a506 b9bd 59fd b5bd
00000350: 24b4 833d 18ec 4fbe 136f 8c3e 9e55 e8bc
00000360: aa11 363e ff78 713d 01ce 93bd 2b64 e03c
00000370: 2ebb d1be a780 cdbe e181 9c3e 1d1a b23d
00000380: 62ea 81be f810 c4be 1187 083d fc6f 8ebc
00000390: e2b2 3e3e 3ed2 983d ce14 3cbe 196e 463d
000003a0: 448e 6b3e f1ae 07be bc90 39be d258 e9bd
000003b0: 78de 57bc 168c 7dbe ce62 0a3e d210 573c
000003c0: dffb a4be ea99 92be 612b 593c e0b4 a43e
000003d0: 3545 92be fda2 c83d 5f39 13be 4465 2e3e
000003e0: 3d1d 153e 6dfc 183e 7fe3 c63d 3fc9 853d
000003f0: f80b c4bd 9321 e33d fcf7 4c3e c4be e8be
-0.1025582 -0.068120204 -0.4113733 0.022711076 0.09593483 -0.032534186 -0.09407459 -0.2359266
0.10600821 0.19963789 -0.11553364 0.18303572 -0.2596222 0.026136955 0.16260192 0.13275789
0.025350286 -0.13592573 -0.2193705 0.16959864 0.16621241 -0.37574434 0.24229057 0.022596685
0.1631312 -0.2436635 0.11870278 -0.030794531 -0.19833592 -0.5298967 -0.36675206 -0.08038781
0.28351232 -0.020298181 -0.34305534 0.13733937 -0.1559019 -0.23354176 -0.19376759 0.03726189
-0.39880967 0.027450774 -0.3605065 -0.4696163 0.18598278 -0.14956416 -0.053682044 -0.44736934
0.1505669 0.3010488 0.002242009 -0.26442045 -0.18136443 -0.065908715 0.19989665 0.097092845
0.08179345 0.09220473 -0.21033753 0.048291966 -0.3111466 0.06703446 0.13755323 0.22262879
-0.19681615 -0.00041484027 0.03135552 -0.015201844 -0.35825318 -0.11473112 0.13777867 -0.08663189
-0.34893614 -0.009204484 0.14624757 0.13469298 -0.6161091 0.1018316 0.009012598 -0.3846692
0.2001465 -0.09120405 -0.06544406 0.07007498 0.09910115 0.017206606 -0.31075168 0.17077304
-0.04711822 -0.07083959 -0.38001728 -0.12465521 0.09248105 0.224723 0.0038058595 -0.35118556
0.09178492 -0.26200607 0.06478235 0.14005719 -0.016681625 -0.18393613 -0.08350287 -0.26254386
-0.10047695 -0.0023110528 0.06611203 0.07380797 0.052408483 0.14527547 0.095234185 -0.16679876
0.12933108 -0.23198383 -0.1533064 -0.08256214 -0.29115546 -0.044297058 0.12980168 -0.046049736
0.31804085 -0.08478874 0.36163434 -0.23593336 0.05511865 0.05366924 0.23994848 0.045494158
0.078368835 0.21205436 0.13831417 -0.26686636 -0.22742999 0.10024123 0.052164387 -0.22435454
-0.18417118 0.1798741 0.11004269 -0.025237288 0.3444928 -0.15387517 -0.04307834 0.15427284
0.13152273 -0.09073545 -0.06918663 -0.032638613 -0.12751807 -0.44719824 -0.27680996 -0.26876876
-0.013556004 -0.3138323 0.04705531 0.050637238 -0.35362712 0.10526664 -0.18412606 0.005143992
-0.13752857 -0.083655216 -0.32059652 0.0718692 0.07698251 -0.022928126 0.03207076 0.06687423
0.026986606 -0.26487654 0.14757583 0.30085284 0.3163558 -0.053637747 0.17460594 -0.12878142
-0.33890533 0.17880292 0.2858214 0.16711771 0.045702547 0.38521686 0.26936218 -0.1908161
0.1656934 -0.038317915 -0.41266873 0.13484862 0.10421867 0.12367865 0.21571307 0.03764173
-0.3779618 -0.4855843 0.006992258 -0.19248563 -0.4630925 -0.12912361 -0.4620406 0.1103864
-0.005046412 -0.06167183 -0.25823912 0.2019005 0.05324331 -0.0627925 0.00985005 0.0057405313
-0.24701078 0.006002032 -0.090344705 -0.08886213 0.064308435 -0.20304906 0.27428493 -0.028361138
0.17780176 0.05895328 -0.072170265 0.027391514 -0.4096312 -0.40137216 0.3056784 0.08696387
-0.25374132 -0.38294196 0.033331934 -0.017387383 0.18622926 0.074619755 -0.18367311 0.04844484
0.23003489 -0.13250329 -0.18121618 -0.11393894 -0.013175599 -0.2476047 0.13514253 0.013126569
-0.32223412 -0.28633052 0.013254971 0.32169247 -0.28568426 0.097967125 -0.14377354 0.17030817
0.14561935 0.14940043 0.0971136 0.06532525 -0.09572595 0.11090388 0.20016474 -0.45458043

linear.4.bias f4 [10]
00000000: 852b b2bd c966 d9bd 5f34 5abc ba29 0cbd
00000010: cc05 fc3d 3568 d7bd 2e86 d1bd 24ca abbd
00000020: 1eeb 443e 4ad9 b33d
-0.08699707 -0.10615308 -0.01331815 -0.03421948 0.12305793 -0.10517923 -0.10230671 -0.08388165
0.19230315 0.08781679
