pretrained/mle_30.pt (torch, 360894 bytes, 6 tensors)

linear.0.weight f4 [100, 784]
00000000: 25e2 1dbc f1ed 6fbc ec5f 873c 08e6 1d3e
00000010: 718b 053e 3094 0c3d a7e8 80bc 74f7 99ba
00000020: 327b 3f3d 4b56 d53c a12f 14bd b758 23bc
00000030: 30b1 693d d506 fdbd 48b7 94bd 2bf4 783d
00000040: 0c57 4abb 12d1 2d3c 8e57 a83c 1c04 b6bd
00000050: c5da ac3c a998 98bc 59ca 9cbc 0e3c 2bbd
00000060: 03df 62bd b97f 17bd d09c bcbd 1f9d c63c
00000070: 8a65 0b3c 239f 4dbb 1980 3ebc e8ba 2abd
00000080: e6cd fd38 c9f4 173d b68c 2bbc 0afe 353d
00000090: 675c ed3c a3a5 ed3b 13c3 763c cd32 d23c
000000a0: 7335 95bc f7a2 95bc 490d 363d 2e9d a8bc
000000b0: dd61 25bc 6d06 10bc 51d5 213d 5e53 83bc
000000c0: f644 a63b 97bf fd3c 7d85 18be 8b79 b03d
000000d0: 35de 473b d5b6 36bd 5cc2 983d f367 35bc
000000e0: d1f9 08bd e2b9 563d 12df 073d d27a 53bc
000000f0: ce03 ac3b 676b 383d 56fd 11bc 2461 263d
00000100: 9286 a73d 3656 d8bd 9c47 373d d5a5 f33d
00000110: 854a 17bc 282b 173d c43c b2bd 0281 dc3c
00000120: c517 aebc 521a 64bc b67b cbbb 8650 9fbb
00000130: 35b4 da3b a3ec b0bc 3fe9 643d 04ce d93c
00000140: 9196 0cbe 4e92 083e aef1 34bc a749 553d
00000150: 4467 d4bc 444a d83c c932 97bb 01f3 bd3b
00000160: 757c 813c 5762 653d 2156 243d cb81 1a3d
00000170: e1f9 703c 5fae 02bd a2e1 f0bc 7f4b be3b
00000180: 8c36 ec3c 01a4 58be e809 24bd fc9e 15be
00000190: 2231 e33d 0705 76be 4916 353d 8179 423d
000001a0: 185a 493d 36c4 63bb 25c4 87bc 2e3c d4bc
000001b0: 8556 08be 20cd 8abb 6cf9 033d 7243 90bd
000001c0: 1012 753a 2e90 ea3d d9d4 b4bd 9fa5 033e
000001d0: 047d 193d 8b4e 36bc 838c 6bbd 2d4b c43c
000001e0: e58d 8fbc 8dce 4f3e f109 7e3b e68e 97bc
000001f0: c817 c1ba 6ae9 ab3c 3472 e4bd a89f 99bc
00000200: 2ce2 353d 1309 c83c 342e f6bd 83bc 5f3d
00000210: c4dc cebc 359f e5bd 9fb3 d8bb 7136 a1bc
00000220: 25c6 aa3c 7ba7 f23b 354e e83c 87e0 a73c
00000230: e597 e2bd eb6f 033d ffe4 7fbd 36cd f93d
00000240: 0648 863d bee3 28bd 3013 0b3d ceb4 b43d
00000250: 4d9c 54be a73f 63bd f317 0b3d 62f8 ae3d
00000260: 978a 5e3d 7deb 343d 0f93 51bc 9b4b 8cbb
00000270: a830 03bc 24c1 bcbc c95c cc3d 37db e93c
00000280: c346 96bc 95a2 523c 668a 373d dcfb 1e3d
00000290: 6dcd 67bd 3a2b ff3b 751c 99bb 4336 933c
000002a0: a10c 913d cc0f ee3c deca 573e dbb1 98bd
000002b0: 2364 cb3c f424 28be 338f b83c 834f 193e
000002c0: e8eb 9d3b 2b0f d03c f0a1 0fbc a73b 223d
000002d0: 4044 203e 8f9a 6dbd d2df 4d3c 1ec9 243e
000002e0: 4513 bcbd 71f8 d33c 72c4 573c 8445 ed3c
000002f0: fb86 c3bd e5ff 773b 98c5 d73b 53cc cf3d
00000300: b693 1ebd f378 193d ce6b 063c 33a8 9f3c
00000310: e434 543d 4f02 0dbd 9e42 b8bd 04a3 6cba
00000320: e738 513d 58df 81bd c888 b93d 839e 643d
00000330: 44e2 8e3a 6cc7 fabd 9788 8d3d ea93 2f3d
00000340: 4c1f e3bb b213 fdbb ffd8 a7bb 4d93 ac3d
00000350: 1189 ca3d 703a 8f3d bfd2 c23a 451b 3fbc
00000360: 8855 2bbe 8174 843d 3207 8b3e 69c1 9f3c
00000370: 8ea6 17be 38b4 82bd 7c33 c73d f57c 393a
00000380: 5bfe 833d 9949 603d 3f69 06bd 4f85 483d
00000390: de4a 743d 8d27 bfbc 9fbc 4cbd f1db 4abd
000003a0: 0c2e 3ebd fdf2 f8bc 0324 a9bd bafc 22be
000003b0: 78fe 0abd 2ff7 563d 4441 2e3d 8ece bebc
000003c0: e7b7 f9bc 6066 83bd 2633 febd eda1 0f3d
000003d0: 25be 98bd b147 2ebd c93b a93c e859 94bc
000003e0: 848d a9bc d692 313d 1042 193e 1b6d a23c
000003f0: ddd2 053e 66bd 0b3d 54a5 2c3d 6b5f fc3d
-0.009636437 -0.014644132 0.016525231 0.15419781 0.13041474 0.03432101 -0.015735937 -0.001174672
0.046748348 0.026042124 -0.036178235 -0.009969882 0.057053745 -0.12354819 -0.072615206 0.06077973
-0.0030874638 0.010608928 0.020549562 -0.088875026 0.021100411 -0.018627482 -0.019139456 -0.04180532
-0.05538846 -0.03698704 -0.09209597 0.024244843 0.0085080955 -0.003137537 -0.011627221 -0.041682154
0.00012102332 0.03709868 -0.01047056 0.044431724 0.028974725 0.0072524115 0.015061158 0.02565899
-0.018213963 -0.018266184 0.044446263 -0.020582762 -0.010094133 -0.0087905945 0.039510075 -0.016030964
0.0050741388 0.030975146 -0.14894672 0.086169325 0.0030497436 -0.044607956 0.07458946 -0.011072147
-0.03344137 0.052423365 0.03317172 -0.012907701 0.005249477 0.0450243 -0.008910498 0.040619984
0.08179964 -0.105633184 0.044746026 0.11896864 -0.009234075 0.03690639 -0.087029964 0.026916984
-0.021251569 -0.013922291 -0.006209816 -0.004861894 0.0066743144 -0.021597212 0.055886503 0.026587494
-0.13729312 0.13337061 -0.011043949 0.052072193 -0.025928147 0.0264026 -0.0046142084 0.0057967906
0.015806416 0.056001987 0.0401212 0.037721436 0.014708013 -0.031904574 -0.029404465 0.0058073397
0.028834604 -0.21156313 -0.04004851 -0.14611429 0.11093356 -0.24025355 0.044210706 0.047479156
0.049158186 -0.0034754402 -0.016573021 -0.025907602 -0.13314255 -0.0042358786 0.03222029 -0.07044114
0.00093487 0.11453281 -0.0882966 0.12856148 0.03747274 -0.011127125 -0.05750705 0.023961628
-0.017523715 0.20293637 0.003876325 -0.018500756 -0.0014731819 0.020985324 -0.11154595 -0.018752888
0.044405147 0.02441839 -0.12020531 0.05462314 -0.025251754 -0.11212007 -0.0066132094 -0.01967928
0.020846436 0.007405219 0.028357605 0.020492805 -0.11064128 0.032089155 -0.062474247 0.12197344
0.06556706 -0.041232817 0.033953846 0.08823548 -0.20762749 -0.055480625 0.033958387 0.08543469
0.05433139 0.04416989 -0.012791409 -0.004281474 -0.008007206 -0.023041315 0.09978635 0.028546913
-0.018344289 0.012856145 0.04480972 0.03881441 -0.056592394 0.0077871354 -0.004672582 0.01797021
0.07082487 0.029060267 0.21073481 -0.07455798 0.024828022 -0.16420346 0.02252922 0.14971738
0.004819382 0.025397858 -0.008766636 0.03960767 0.15651035 -0.058008727 0.01256557 0.16092345
-0.09183363 0.025875302 0.013169395 0.028963812 -0.0954723 0.0037841734 0.0065848343 0.101463936
-0.038715087 0.03746886 0.008204414 0.019489383 0.051808253 -0.03442603 -0.08997081 -0.0009026977
0.051079657 -0.063414276 0.09059292 0.05581523 0.0010901173 -0.12245068 0.06910818 0.04286567
-0.006931221 -0.007723295 -0.0051223035 0.08426533 0.098894246 0.06993568 0.0014863833 -0.011664216
-0.16731846 0.06467534 0.27153927 0.019501405 -0.1480963 -0.0638203 0.09726617 0.000707581
0.06444999 0.05475769 -0.032815214 0.048955258 0.05964171 -0.023334289 -0.04998457 -0.04952616
-0.046430632 -0.030389303 -0.08258822 -0.1591672 -0.033934087 0.052481826 0.04254271 -0.023291852
-0.0304832 -0.06416011 -0.124120995 0.035066534 -0.07458142 -0.04254884 0.02065839 -0.018109277
-0.020697363 0.043352924 0.14966607 0.019827416 0.13068719 0.03411617 0.042149857 0.12322887

linear.0.bias f4 [100]
00000000: ee4f afbc bdc4 693c 54de 16bd 9c82 f23c
00000010: 9090 3d3d b756 163d 19d4 063d c56d 1bbd
00000020: af8e a7bc ef4a 253d c874 cdbc 3a1c 41bc
00000030: 968b 003c c149 dabc 5183 beb9 878e 0a3c
00000040: df1f 1b3d c247 4a39 8f32 593d ac7c 013d
00000050: 8ea9 5dbc 6906 2d3d f901 febc 3db0 14bd
00000060: 6e59 06bb a4cf b3bb ab52 05bd 0bd0 95bc
00000070: 0148 d73c 60a6 2fbd cfbd 2d3c a750 603d
00000080: 9ffb 81bc 33f7 c43c 8df4 713c 7f8d 643c
00000090: 86e5 be3c 7cdd b5bc 3b67 fbbb 2323 03bd
000000a0: e3de d73c 1c5f 5cbc 99c8 ca3c fa26 44bc
000000b0: db51 0cbc 41c8 a13c 276e c4bb 874c b93c
000000c0: 3240 aebc ce7a 19bd bf54 3d3d 6a97 b739
000000d0: 8609 90bc 72b1 44bc 1612 b63c 2b82 d13c
000000e0: 1a95 bf3c 5983 c0bc 110a a8bc f6e1 0ebd
000000f0: f956 c3bc e491 4bbc 5e50 9fbb 5df4 133b
00000100: 3337 083d 8596 cb3b b67c f03c a0f2 94bc
00000110: b393 c23c 7b18 02bd 6eaa 1bbd 5f76 f0bc
00000120: f5b9 7eba a588 eabb 27d2 853c c556 5b3d
00000130: ea7c 2ebb 830b b63c 20c6 8cbc a44f 1f3d
00000140: 6918 153c ac8a b2bc 7339 973c 0481 093c
00000150: 8480 08bd 7611 873c 58fd 1dbd 2e9a 6f3b
00000160: 0bd7 02bd 5021 be3b 94c5 6dbc 89bd 43bc
00000170: 9ee4 edbb 56cb 44bc 5f90 fa3c b466 3c3c
00000180: 2c9c 643b 131a ed3c 2ccb e1bb d679 d6bc
-0.021400418 0.0142680975 -0.036833122 0.029603295 0.046280444 0.03670379 0.032917116 -0.03794648
-0.020453779 0.040354665 -0.0250801 -0.011786515 0.00784578 -0.026646497 -0.00036337462 0.008456833
0.03787219 0.00019290953 0.053026732 0.031613037 -0.0135291945 0.04224244 -0.0310068 -0.036300886
-0.0020500082 -0.005487399 -0.03254954 -0.01828768 0.026279451 -0.042883277 0.010604336 0.054764416
-0.015867053 0.024043655 0.014767778 0.013949751 0.023302805 -0.022200339 -0.007672218 -0.03201593
0.026351398 -0.01345041 0.024753856 -0.011972183 -0.008564438 0.019748809 -0.0059945765 0.022619499
-0.021270845 -0.03747063 0.0462234 0.00035017292 -0.017582666 -0.012005197 0.02222542 0.025574764
0.023386527 -0.023500131 -0.020512613 -0.034883462 -0.023845183 -0.01242492 -0.0048618754 0.0022576072
0.033255767 0.0062130117 0.029356342 -0.018182099 0.02375207 -0.031761628 -0.03800433 -0.029353319
-0.0009717041 -0.0071574026 0.01633556 0.053549547 -0.0026624748 0.022222286 -0.017184317 0.03889431
0.009100058 -0.02179464 0.018460011 0.008392576 -0.033325687 0.016487818 -0.038571686 0.0036560404
-0.031943362 0.005802311 -0.014512438 -0.011947044 -0.0072599193 -0.01201137 0.03058642 0.011499096
0.0034883125 0.028943097 -0.006890675 -0.026181143

linear.2.weight f4 [100, 100]
00000000: ae88 d5bb abd9 ad3d 7785 303c 538d 5e3d
00000010: 3cd1 8fbd 0b47 b4bd aa0c 483c a278 1fbd
00000020: 5dde 1abd a059 f03c 939c d8bd 113b 01bd
00000030: 12f7 58bd 27af 4f3c 50fd bcbd 60a3 713d
00000040: 1f04 c3bd fecb 5abd 329d 753c eeae b5ba
00000050: 9f3c 823d fff5 913b fc7c 94bd 28f3 a9bd
00000060: 5a08 afbd cc7a 9fbd 80e2 45bd c584 09bd
00000070: d179 983d 0333 5cbd 4ac9 b7bc bf9a a23c
00000080: 2ba4 9a3d e751 c83b bb74 84bd 50e9 2cbd
00000090: eb1d 9a3d cd2e 91bd fc38 dcbc 6de0 993c
000000a0: b85b 603b bf0f 0f3c 4adc 29bd 6702 e63c
000000b0: 7d29 2ebd 5d9d 62bd 8955 cf3c 35ad a73d
000000c0: 5b27 a23d a6b2 b53d 7ba9 613b bc17 62bd
000000d0: 3c3a b4bc 5cd1 b5bd bfac 11bd 5f49 39bd
000000e0: 1729 b83d cb10 813c fb2b cfbd 404a 8cbd
000000f0: 6087 9cbd 80c8 babc dc50 1dbd 5b30 dabd
00000100: d6d2 653c 982d 4fbd 6207 5b3d 000d 84bd
00000110: 5c2d c7bb 7de6 32bd 2ff2 a7bd 2847 bc3c
00000120: bd72 94bc a9e5 9ebd 17cf 9abc 33ba 91bc
00000130: fba6 b8bc 8aa3 72bd 41c7 6d3d c615 07bc
00000140: 3eb8 8c3a bfa6 cd3d 1fa5 b0bd 9b7c 9b3c
00000150: 760b 83bd 2db6 94bd 1388 8ebc f710 163b
00000160: 43da f5bc 5f57 b2bd e873 8a3d e5a2 a1bd
00000170: 9ed0 a6bd f10b 83bd a428 253d d605 f43c
00000180: 772e 4ebd 8b50 6fbc 829a 8dbd 1b74 1a3b
00000190: 1fbb 3b3c c132 72bd 672a d13c 9d2f c43c
000001a0: fb0b 463c 2716 893d 729d 803d 1f4f 803e
000001b0: 83fe 26bd 9549 173e 5134 df3d e933 723d
000001c0: a2f5 cd3d c06d 4f3d 576b 1b3e dcf1 c03d
000001d0: eadf 91bd 4937 5b3d 4d0d f4bc d1cf 4abd
000001e0: a1e9 6abd ccc2 c63d 23a7 10be 4f09 823d
000001f0: 4d6d 083e b2cc 6e3d 1fee 5cbe 530d 7cbd
00000200: b058 803d 1a58 2cbd 0858 fb3a 5813 c9bc
00000210: 16f8 4d3e 591d 89bd f5a9 213e 9872 3d3e
00000220: a81c 973c 523d ccbb 972c b8bd 2965 48be
00000230: 8e9d 4fbe d006 fa3d 05bf 053e 731e a83d
00000240: 624d c2bd ffd1 3d3e 8309 443d 43f7 0e3e
00000250: b045 51be 3b9d babd ad97 843d 7e82 803d
00000260: 81fd 533e 436c 783e 231f 033e b10d d3bd
00000270: d1d0 d3bc eb3e a63e 3613 c3bc 890e 333d
00000280: 0efa 0b3e fdea 3c3d 0b6d e9bc 9de8 fc3d
00000290: 689b 013c c023 b3bd 6e5c 113c c36d 253c
000002a0: c4cd eabc be16 adbd d2f0 fe3c c06c a83d
000002b0: 7c42 b73d 9203 86bc b7e5 ca3c 49fa ff3c
000002c0: bcc3 9a3e 041c 073e 213e 183e abe2 2ebc
000002d0: b3ae 21bd 8d0e b63d a9c4 0dbe 5c39 a03d
000002e0: f5ab 893e 5feb 8a3d 751c 153d 59ad b4bd
000002f0: c2dc e938 b267 0cbd eb28 09be 1112 2f3d
00000300: 49a7 e23d 680e fb3c 602b c33d 3c6d 36bd
00000310: cf6b a53c ae7c e8bd bba6 50bb d949 34be
00000320: 0c86 483d 9bc4 d2bd 4420 573e 0155 253e
00000330: 642c 9a3d e276 623d ad03 743c 5f6b bf3d
00000340: cf6b dcbd 31ba 0c3d d901 843d 103f a93d
00000350: e45e a1be 4667 efbd 9a43 8e3d 8380 4f3b
00000360: aed6 bd3d 6cf0 c5bc a581 0bbd 28c0 683d
00000370: 3508 033e 1d2d 16be 32eb 873c d5e2 e0bd
00000380: 35be 883d c6f0 ed3d daac 2ebe f694 41be
00000390: cdb0 403c a9e6 3ebe b05e 53be 112e e63c
000003a0: 43c4 3e3e 7d03 99bd 717e ae3d f32c 353e
000003b0: 6a56 6c3d f909 873d a5d5 7b3d bbae 8cbd
000003c0: 44d8 d7bd 4b60 e63d ba91 1f3d 4c50 1fbe
000003d0: bb28 f5bd 91bf e53d 4c66 abbd f09b 803d
000003e0: 7e9d dcbc 6f8e 94bd 2b26 573c 67ef 783d
000003f0: 474f 48bd 492d dd3d 2965 203e b70a 9d3d
-0.0065165376 0.084887825 0.010774008 0.054333996 -0.0702233 -0.08802613 0.012210051 -0.038933404
-0.03780972 0.029339612 -0.10576739 -0.03155047 -0.05297 0.012676037 -0.09228003 0.058993697
-0.095222704 -0.0534172 0.014991092 -0.0013861337 0.06359219 0.004454374 -0.072504014 -0.082983315
-0.08546515 -0.077870935 -0.04831171 -0.033573885 0.0744511 -0.053759586 -0.02243485 0.01984918
0.07550844 0.006113279 -0.06467577 -0.04221469 0.07525238 -0.07089005 -0.026882641 0.018783772
0.0034234356 0.0087317815 -0.04146985 0.028077317 -0.042520035 -0.055325855 0.025309341 0.081873335
0.07917663 0.08871965 0.0034433294 -0.055198416 -0.022000425 -0.08877823 -0.035565134 -0.045235988
0.08992212 0.015755078 -0.101158105 -0.068500996 -0.07643008 -0.022800684 -0.03840719 -0.10653754
0.014027318 -0.05058059 0.053473838 -0.06447792 -0.0060784053 -0.043676842 -0.0820049 0.022983149
-0.018121118 -0.07758648 -0.018897576 -0.017788982 -0.02254056 -0.059237994 0.05805135 -0.008244937
0.0010736061 0.1004157 -0.08625244 0.018980315 -0.063986704 -0.0726131 -0.01739887 0.0022898295
-0.030011302 -0.08708071 0.067603886 -0.07892398 -0.08145259 -0.06398762 0.04032196 0.029787939
-0.05033728 -0.014606605 -0.06914236 0.002356774 0.011458187 -0.059130434 0.025532914 0.023948485
0.012087817 0.06693678 0.0628003 0.25060365 -0.040770065 0.14774163 0.108986504 0.059131537
0.10056616 0.050641775 0.15177666 0.09421131 -0.07122786 0.05351952 -0.029791499 -0.049514595
-0.057351712 0.09705123 -0.14126258 0.06349432 0.13322945 0.05830068 -0.21575211 -0.061536144
0.06266916 -0.042076208 0.0019176016 -0.024545357 0.20114169 -0.06695051 0.1578749 0.18500745
0.018446282 -0.006232896 -0.0899288 -0.1956984 -0.20274946 0.12208331 0.1306115 0.08208933
-0.09487416 0.18537138 0.047860634 0.1396151 -0.2043674 -0.091120206 0.06474242 0.062748894
0.20702173 0.24260049 0.12804846 -0.10305346 -0.025856407 0.32469878 -0.023812871 0.043715034
0.13669607 0.04612254 -0.028494379 0.12349055 0.007910587 -0.08747053 0.008872135 0.01009697
-0.02866257 -0.08451603 0.031120691 0.082238674 0.08948228 -0.016359124 0.02476774 0.031247275
0.30227458 0.13194281 0.1486745 -0.010674159 -0.039473247 0.08889494 -0.13844551 0.078234404
0.26889005 0.06783175 0.036404092 -0.08822126 0.00011151425 -0.03427858 -0.13394515 0.04274184
0.11067063 0.030646518 0.095297575 -0.044537768 0.020193009 -0.11351906 -0.003183766 -0.17606296
0.048955962 -0.10291406 0.21008402 0.16145708 0.07527998 0.055289157 0.0148934545 0.09346651
-0.1076275 0.034357253 0.06445665 0.08263981 -0.31517708 -0.1168962 0.06946488 0.0031662292
0.092694625 -0.024162494 -0.034059186 0.05682388 0.127961 -0.14665647 0.016591642 -0.10980765
0.06676904 0.116181895 -0.17058125 -0.1890448 0.011760903 -0.18642677 -0.20641589 0.028098138
0.18629555 -0.074713685 0.085202105 0.17692928 0.0576996 0.06593699 0.061483044 -0.06869265
-0.10539296 0.11248835 0.038957335 -0.15557975 -0.11970659 0.11218179 -0.08369121 0.06279743
-0.026930567 -0.072537296 0.013131659 0.060775187 -0.04890373 0.10799653 0.1566359 0.07668059

linear.2.bias f4 [100]
00000000: 244e 6abd ea26 27bc e187 c5bc d10f 75bc
00000010: 823f d3bd 121a 7dbc e300 bebd 6a96 8b3d
00000020: ed44 07bd b498 393d 746d 3e3c 4e23 1eba
00000030: 71d7 0cbd c031 4c3d c1c1 ee3b 28d4 ba3c
00000040: 9184 343d 09cd 5d3d 232c b63d 2e5d 6abc
00000050: a937 92bc b0a6 183e 4a21 bfbd 1479 f3bd
00000060: 25d7 50bc c086 c53c d5fb c8bc 62eb 873d
00000070: 6a6f 38bd 2348 de3d 20a0 563c 368c 2b3c
00000080: dace dfbd 6042 b9bd 0b6c 6f38 5a6b 0bbd
00000090: 8354 4f3e 5a04 9b3d cc4f 85bc 7c1f 82bd
000000a0: 9b88 7a3d 24aa f5bc 4051 95bd 5c8e 99bd
000000b0: 9b5e e03d 9967 e13d 5e3f 47bd 28f2 b33d
000000c0: 8656 d1bc 55e5 e0bc acb2 b93d b100 683c
000000d0: b6d8 273e 5fc0 89bc f48c 13bd a471 9a3d
000000e0: 0718 9a3c 66fe 0ebe 6214 fb3d 99c9 f43b
000000f0: be39 dd3c 1937 98bc c21b aa3d d912 57bd
00000100: ae7a 93bd d8a1 713d a270 163e 9c77 913d
00000110: 693c dc3d 6070 1d3d d2be d8bc 592c 4cbd
00000120: e374 893d a964 a4bc bdaa 1c3d 7bc0 b83c
00000130: 9599 f4bd 58eb df3d 563d 653b 573f 1bbe
00000140: 9c45 753d d2e8 133d 0055 1b3d 39bb 643d
00000150: 65a8 213d d5d2 bf3c b77f 5cbd cbc0 fdbc
00000160: b000 83bc e9c7 383e 2445 013e 96dd bfbc
00000170: 6ecf afbd f305 803d 6903 a23d 73d6 b4bd
00000180: 224f 89bd 7504 3e3d adff e23d 4da6 b83d
-0.057203427 -0.010202149 -0.024112644 -0.014957384 -0.103148475 -0.01544811 -0.09277513 0.068157986
-0.033024717 0.045311645 0.011622775 -0.00060324825 -0.03438515 0.049852133 0.007286281 0.022806242
0.044071738 0.054150615 0.08895137 -0.014304442 -0.017848806 0.14907336 -0.09332521 -0.11888328
-0.012746607 0.024112105 -0.024534145 0.066366926 -0.045028128 0.10853603 0.0130997 0.010470441
-0.10928126 -0.09045863 5.7082663e-05 -0.034037925 0.20247082 0.07569189 -0.016273402 -0.063536614
0.061165433 -0.029988356 -0.07290888 -0.07497856 0.109555446 0.11006088 -0.048644416 0.08786422
-0.025553953 -0.027453104 0.09067282 0.014160321 0.16391262 -0.016815362 -0.036023095 0.075412065
0.018810285 -0.13964233 0.12259747 0.0074703214 0.027005073 -0.01858096 0.08306076 -0.05250821
-0.07201134 0.058992237 0.14691404 0.07102892 0.1075371 0.038437247 -0.026458178 -0.04984698
0.067117475 -0.02006753 0.038248766 0.02255272 -0.11943356 0.1093356 0.0034979186 -0.15160881
0.059880838 0.036110707 0.03792286 0.055842612 0.039467234 0.023415962 -0.053832736 -0.03097572
-0.015991539 0.1804501 0.12624031 -0.02342109 -0.08584486 0.06251135 0.07910807 -0.088299654
-0.067045465 0.04639097 0.110839225 0.09016094

linear.4.weight f4 [10, 100]
00000000: 7772 113d 0de7 36bd 9136 9abe ae3c 72bb
00000010: 05b3 b03d 28fb 0abd 3e9d cebd 6ba1 0fbe
00000020: 06a0 a83d 98c9 1a3e 1ca9 54bd 0b2c 253e
00000030: 60a7 81be 3c87 ac3c 9f92 1d3e 2990 ff3d
00000040: f2d6 503d 9289 f0bd a24d 1cbe c236 1f3e
00000050: a368 e03d ad6a b4be 1ad9 643e 9621 cdbb
00000060: 4512 e13d 7a86 4cbe ae33 e03d d044 fcbc
00000070: 2c99 28be 050d b4be 7e6d 9ebe 7866 9abd
00000080: b6a9 7f3e 780c 48bd a6c1 a3be e887 123e
00000090: d3c9 18be 0fa3 63be 067f 17be 334d 2cbc
000000a0: 1f61 97be 6a75 c8b9 3653 93be 7d48 d6be
000000b0: 7ed9 313e d734 e7bd 5c44 76bd b71e c6be
000000c0: 5f2b 0e3e 92c8 7f3e e8d9 3bbd 32ef 5bbe
000000d0: fe73 4fbe a648 12bd 8354 203e 8edb 083e
000000e0: f508 a73d 6ee0 023e d192 3bbe 9384 bf3c
000000f0: 0626 6ebe f474 92bb a82b 103e f484 3c3e
00000100: c570 22be ee69 b0bc e70c 0e3c 6d62 b43b
00000110: 7072 77be bb19 3abe 5501 f93d d280 adbd
00000120: ceaf 9ebe 13dd 2a3c aada 113e 7303 003e
00000130: 8686 01bf 3ab3 4c3d 4770 093d 2087 99be
00000140: 329a 373e 4c43 5cbd 45a0 93bd d181 8d3d
00000150: 9e4f 5c3d fa7a 1c3d 9e7f 90be e72e ff3d
00000160: e2ad 28bd 9bb5 debd 5448 a8be 5c84 eabd
00000170: 83d4 c73d 2ef0 4c3e 598c 17bc 840c 6dbe
00000180: 527b e73d 8cf1 31be a588 243d 6090 0e3e
00000190: 4d1c 0f3d 51fc 2dbe dbc7 e5bd 9431 3ebe
000001a0: 53ef 9abc 3189 303c e7c1 7c3d 6a4e 793d
000001b0: b9ca 8b3b b993 e93d 116b 8a3d a899 06be
000001c0: 6e99 eb3d f628 0cbe 0ab2 1cbe 32c4 92bd
000001d0: abcf 8cbe cee8 b43a 7be7 f23d 421b 2a3b
000001e0: 53d0 6d3e f9d1 22bd 0e41 cb3e e554 94bd
000001f0: 41b3 a83c 2bbc 433d 5988 6f3e 1558 3a3d
00000200: d4ac af3d b98d 363e b008 0e3e 53eb 47be
00000210: 800e 3abe 8519 d73d 4ca3 9c3d bda8 2ebe
00000220: e13a 2fbe ee0f 3d3e 3b21 bf3d 9e3f fcbc
00000230: 76cf a73e 71e4 cbbd 5664 22bd 31c3 013e
00000240: 9ba1 ec3d 2ab0 d4bd 42f7 96bd c329 cd3c
00000250: b770 cbbd faba 96be 1317 7cbe dcc5 e0bd
00000260: cc0f 28bb 6754 76be b866 2f3d fa58 e63c
00000270: cb4a 92be c707 d83d c761 33be d6a6 ef3c
00000280: 5fff e3bd 4439 acbd 497f 7bbe 6f0a b73d
00000290: 0334 ac3d 533b 1ebd 022d 5f3d d889 b83d
000002a0: ee92 333d febb 4abe ff3b e63d 46d7 8a3e
000002b0: 1c72 763e 76e0 adbd 2f3a 153e 0462 cfbd
000002c0: f436 86be eabe cf3d eae2 7f3e 17f6 f53d
000002d0: 6159 513d 3131 a43e 1bd4 7c3e 8dd0 45be
000002e0: 8a3c 1b3e 7423 163c 6969 bbbe 3a03 073e
000002f0: c6d0 db3d 03bd f03d 03da 413e a273 233d
00000300: 26f1 9bbe bd75 a5be 8127 483c 25f5 02be
00000310: 2aca afbe ed8d 20be f222 bfbe c5ff c23d
00000320: 0f5e 463d dd5c 95bd 8fbe 4dbe c721 303e
00000330: ad36 ff3c 6a08 86bd 400f 8b3a 8bb3 333c
00000340: a186 81be ec72 053d 9d32 36bd 6a8e 7dbd
00000350: 35d2 223d 0579 56be 7032 723e 159d 8fbc
00000360: 967d 163e a693 8e3d 7f44 43bd ea46 963b
00000370: 516c b4be 0962 afbe 1b67 833e 8349 103d
00000380: 1f8f 66be 78a4 b3be 81b5 643d 782c bc3b
00000390: e66a 333e adb0 063d dc97 3cbe 99b7 1f3d
000003a0: 8844 413e 957b f6bd f390 1dbe bced b9bd
000003b0: 8c9b 13bd 9c55 6fbe e6e6 ea3d 7b00 743d
000003c0: 45e5 87be 367f 7fbe 4b44 b33b ca0d 8b3e
000003d0: b0e9 7ebe ccc9 b63d 2d0b f4bd c528 2e3e
000003e0: e4ac 053e c58e 0f3e 615c c03d c816 613d
000003f0: 5abb b0bd 6615 a03d 5aeb 3d3e 6f17 c2be
0.035509553 -0.04465394 -0.30119756 -0.0036962437 0.08627895 -0.033930928 -0.10088585 -0.1402642
0.08233647 0.15115964 -0.051919088 0.16130082 -0.2532301 0.021060579 0.15387963 0.12478668
0.050986238 -0.117449895 -0.1526399 0.15548232 0.10957458 -0.35237637 0.22348443 -0.0062601073
0.10989813 -0.19973174 0.10947357 -0.030794531 -0.1646468 -0.35166183 -0.3094291 -0.075390756
0.24967083 -0.048840016 -0.3198368 0.14309657 -0.1492074 -0.2223017 -0.1479455 -0.010516453
-0.29566285 -0.00038234453 -0.28774422 -0.4185218 0.17368123 -0.11289375 -0.060123786 -0.3869531
0.13883732 0.24978855 -0.04586211 -0.21477965 -0.20259091 -0.035713814 0.15657239 0.13365003
0.08156005 0.12780926 -0.18317725 0.023378646 -0.23256692 -0.0044695083 0.14079154 0.18410093
-0.1586333 -0.021534886 0.008670068 0.0055048973 -0.24164748 -0.18173878 0.12158457 -0.08471836
-0.30993503 0.010428685 0.1424357 0.12501316 -0.5059589 0.04997561 0.03355434 -0.29985905
0.17929915 -0.053775117 -0.07208303 0.06909526 0.053786866 0.038203217 -0.28222364 0.12460118
-0.041181453 -0.10874482 -0.32867682 -0.11451027 0.0975733 0.20013496 -0.00924977 -0.23149306
0.11302818 -0.17377299 0.040169377 0.13922262 0.0349391 -0.16990782 -0.1121976 -0.185736
-0.018912947 0.0107748965 0.061708357 0.060865797 0.00426611 0.11405129 0.067587025 -0.13144553
0.11503874 -0.136875 -0.15302292 -0.071663275 -0.27502188 0.0013802291 0.11860558 0.0025956188
0.23224 -0.039751027 0.3969807 -0.07242755 0.020593287 0.047786873 0.23391856 0.045494158
0.08577886 0.178275 0.13870502 -0.19523363 -0.18169594 0.10502914 0.07648334 -0.17056556
-0.17112304 0.18463108 0.0933251 -0.030792054 0.32775468 -0.09955681 -0.03964647 0.12672116
0.11554261 -0.10385163 -0.073713794 0.025044328 -0.09933608 -0.29439527 -0.24618177 -0.10975239
-0.0025644181 -0.24055634 0.04282257 0.0281186 -0.28572688 0.105483584 -0.17517768 0.029254358
-0.111326925 -0.0840936 -0.24560274 0.08937537 0.08408358 -0.038630795 0.054486282 0.090106666
0.043841295 -0.19798276 0.11241912 0.27117366 0.24066967 -0.08490078 0.14572977 -0.10126117
-0.262138 0.10143836 0.24988905 0.120098285 0.05111063 0.3206878 0.24690287 -0.19317837
0.15159813 0.009163726 -0.3660386 0.13184825 0.1073318 0.11754801 0.18930821 0.039905198
-0.3045742 -0.3231639 0.01221645 -0.12788828 -0.34333926 -0.1567914 -0.3733135 0.095214404
0.048429545 -0.07293103 -0.20092224 0.17200385 0.031154001 -0.065445736 0.0010609403 0.010968099
-0.25298026 0.0325803 -0.044481862 -0.061903395 0.03975125 -0.20944603 0.23652053 -0.017530957
0.14696345 0.069617555 -0.047672745 0.0045860903 -0.3523889 -0.34254482 0.256646 0.035226356
-0.22515534 -0.35086417 0.055837158 0.005742606 0.17521247 0.032883335 -0.18417305 0.03899345
0.18873799 -0.1203529 -0.15387325 -0.09078547 -0.036037013 -0.23372501 0.11469822 0.05957077
-0.26542106 -0.24950871 0.0054707876 0.27158958 -0.24893832 0.089252084 -0.11916194 0.1700774
0.13054234 0.14019306 0.0939262 0.054953367 -0.086294845 0.078165814 0.18546811 -0.37908503

linear.4.bias f4 [10]
00000000: a252 3bbd 32b4 75bd b823 e23b bfe5 a8bc
00000010: 0f2e dc3d 44df 8abd 6302 a2bd aebb debc
00000020: fbda 5d3d b8f8 453d
-0.0457331 -0.0599863 0.0069012307 -0.020617364 0.107509725 -0.06780866 -0.079106115 -0.027189102
0.054163914 0.0483329
