pretrained/mle_10.pt (torch, 360894 bytes, 6 tensors)

linear.0.weight f4 [100, 784]
000000 0d 3f 94 bc a1 f1 d8 39 13 ba 4d ba 52 2f 94 3d
       -0.018096471 0.00041378758 -0.00078478566 0.07235588
000010 8e 21 85 3d de a9 dc 3c af 48 cc bc 74 e7 03 bd
       0.06500541 0.026936468 -0.024937002 -0.032203153
000020 b6 b1 1b 3d d7 76 91 bb 9e 48 b2 bc 50 4d 99 bc
       0.038011275 -0.0044392156 -0.021763142 -0.018713623
000030 54 32 69 3d f2 86 48 bd 11 24 06 bd b2 02 be 3c
       0.056932762 -0.04895682 -0.03274924 0.023194645
000040 b1 d5 41 bc 53 5b fb 3a 25 0c 17 3d d3 31 a7 bd
       -0.011830733 0.0019176997 0.036876816 -0.081638
000050 20 97 28 3c c0 d6 b3 bc 28 1a 4c 3b 90 8a be bc
       0.010289937 -0.021952987 0.003114352 -0.023259431
000060 d1 27 0a bd ca e3 15 bd 67 80 a5 bc 93 f8 7d 3c
       -0.033729378 -0.03659419 -0.020202829 0.015501159
000070 01 0f 77 b9 1f f5 42 bc 4b ac 9e bc 42 9d 45 bc
       -0.00023561345 -0.011899262 -0.019369265 -0.012061419
000080 6f 0b 88 bc a0 48 e8 3c 4d 67 9d bc 6d e5 6c 3c
       -0.016607014 0.028354943 -0.019214297 0.014458996
000090 31 81 23 3c 98 fe 3b ba ae 02 cf 3b b5 7e 8a 3c
       0.009979532 -0.00071714213 0.006317458 0.016906122
0000a0 4d 39 fb bc 92 ff 89 bc e5 3c 12 3d 63 83 11 3c
       -0.030666972 -0.016845498 0.035702605 0.008881423
0000b0 e4 51 9a bc af 0b 93 bd e0 c5 ed 3c a9 4d d9 bc
       -0.018837877 -0.07179963 0.029025018 -0.026526289
0000c0 93 2e 2f bb 2b 7b 09 bc d0 e9 ed bd 48 19 04 3d
       -0.0026730641 -0.008391182 -0.11616862 0.032250673
0000d0 62 94 ba bb e3 97 87 bd 83 a0 05 3d 95 66 f0 bc
       -0.005693958 -0.06620767 0.03262378 -0.02934579
0000e0 17 90 87 bd e4 aa 6b 3d 0f e0 80 3c 81 00 17 bc
       -0.0661928 0.05753602 0.01573184 -0.009216429
0000f0 47 e9 d1 bb 82 04 7d 3d 3a f9 8b 3c da c1 df 3c
       -0.0064059827 0.061771877 0.017086614 0.027314115
000100 bc 71 9e 3d b6 50 ae bd ea 47 26 3d 05 78 9c 3d
       0.07736537 -0.08511488 0.040595926 0.076400794
000110 46 46 93 bc 8a b5 e6 3c f1 af 81 bd 07 44 cf 3c
       -0.017977845 0.028162736 -0.06332386 0.025300993
000120 43 bd 42 bc 0c ae b9 bc b3 ff 74 bc 0b ea 5e bc
       -0.011885944 -0.022666 -0.014953542 -0.013605605
000130 b4 9e 07 bb a9 2e ac ba e3 25 62 3c 77 53 ad 3c
       -0.002069396 -0.0013136464 0.013802978 0.021157963
000140 71 87 5c ba 35 33 7a 3d 68 40 08 bd 9c 5d 31 3d
       -0.00084125163 0.06108399 -0.033264548 0.043302163
000150 25 58 fe bc ba 2b 63 3c 56 20 ee bc 5a 60 7e ba
       -0.03104789 0.013865406 -0.029068153 -0.00097036886
000160 8b 6e e7 3b f0 e2 a0 3b c6 d9 f4 3c bc 62 ed 3c
       0.0070627383 0.0049098656 0.029888999 0.028977744
000170 62 17 17 3c 7b 07 73 bd 6c f0 2f bc 29 fa fa 3b
       0.0092218835 -0.059333306 -0.010738473 0.007659216
000180 b6 23 ac 3c f8 22 02 be d3 af c3 bc 16 b6 d5 bd
       0.021013122 -0.12708652 -0.02388755 -0.10435121
000190 c9 15 c4 3d 78 68 0c be 93 60 2b 3d 56 a9 1e 3d
       0.09574468 -0.13711727 0.041840147 0.03873571
0001a0 f7 8f ae 3b c6 2d 64 bc 19 43 cf bc ee 0c 06 b9
       0.0053272205 -0.013926929 -0.02530055 -0.00012784053
0001b0 39 c7 8d bd a1 0d e3 bb 05 d2 ea 3c 61 86 99 bc
       -0.06922764 -0.006929115 0.028664598 -0.018740835
0001c0 a7 54 e9 39 6b fb 80 3d 46 50 1d bd b6 bc a6 3d
       0.00044504294 0.06297954 -0.038406633 0.081414625
0001d0 f4 15 05 3c 6b f5 b2 bc 53 28 1c bd ce 65 63 3b
       0.00812291 -0.02184554 -0.038124394 0.0034698131
0001e0 ca 2e d7 bc 68 b1 eb 3d 10 2d a4 bb 9c 06 cc 3c
       -0.026267428 0.11508447 -0.0050102547 0.024905495
0001f0 83 2e a1 3c 13 1a 49 3c 78 36 6a bd a0 52 97 bc
       0.019675499 0.012274283 -0.05718085 -0.018472016
000200 45 43 13 3d 1a a7 7e 3c 6e 0f d9 bd 74 a0 c3 3c
       0.035952825 0.01554277 -0.10598646 0.023880221
000210 5c dc 99 bc 3b 67 9d bd 2f e5 46 bc 64 07 93 bb
       -0.018781833 -0.07685705 -0.012139603 -0.004486965
000220 3b a4 4d 3c 75 e0 c8 3b 98 e6 6a 3c d8 5e 40 3c
       0.012551363 0.006130273 0.014337204 0.0117413625
000230 ac 06 d4 bc d5 3e bf 3c 0a 8a 5f bd 5f e3 a7 3d
       -0.025882088 0.02334539 -0.054575004 0.081976645
000240 a3 9d 4d 3d 67 66 22 bd 3c 10 b4 bc 2a e6 8d 3d
       0.050199162 -0.03964844 -0.021980397 0.06928666
000250 13 8c 53 bd 3f 52 2a bd 62 46 28 3b 45 e2 e1 3c
       -0.051647257 -0.041582342 0.0025676717 0.027573714
000260 fd e1 1c 3d 19 1b 11 3d 44 f1 be bc 4a 8e ad bb
       0.038301457 0.035426233 -0.023308404 -0.005296503
000270 d2 9f 49 bc b7 d0 df bc 49 ae 94 3d d6 aa 48 3c
       -0.012306171 -0.027321203 0.07259805 0.012247762
000280 c3 08 d9 bc 63 d6 21 3c 32 9c 58 3d d7 65 12 3d
       -0.026493436 0.009877774 0.052883334 0.035741653
000290 64 27 3b bd 90 c2 7a ba 00 59 50 3c 2d 5e 12 3d
       -0.045691863 -0.0009565735 0.012716532 0.035734344
0002a0 d7 69 1c 3d d6 a7 b9 3c cd 40 03 3e bc b1 28 bd
       0.038186874 0.022663038 0.12817688 -0.041185126
0002b0 57 76 53 bb 3d 9a 14 be de dc 61 3c 21 8a cd 3d
       -0.003226658 -0.14511962 0.013785569 0.100361116
0002c0 db 74 be bb 9b 38 c6 3c 72 6a 5e bd 56 a2 fb 3b
       -0.00581227 0.024196913 -0.054300733 0.007679264
0002d0 c5 4f fd 3d 59 5b 53 bd 9b fe 98 3b 75 7a f8 3d
       0.123687305 -0.051600788 0.004669023 0.12132732
0002e0 6c 40 4f bd a1 57 8c 3c b9 04 3c bd 26 c6 6e 3c
       -0.050598547 0.017131628 -0.04590294 0.014573609
0002f0 b1 66 43 bd 12 9e c1 3b c1 35 b4 bb 0f ba a3 3d
       -0.047705356 0.005908736 -0.005499572 0.07994472
000300 99 45 f0 bc 92 b5 f5 3c 5e 2a 3a 3a 69 5b d2 3c
       -0.029330062 0.029993806 0.000710165 0.025678353
000310 68 cc 95 3c fb ab 98 3c 9a cb 3b bd a4 4e 49 bc
       0.018285945 0.018636694 -0.045848466 -0.012286816
000320 63 4f 2d 3d 59 6b e7 bc 1b 70 96 3d 5f 93 39 3d
       0.042312037 -0.02824943 0.07345601 0.04530656
000330 c4 ca fa bb 8e 85 98 bd 76 77 74 3d 6d c3 0b 3d
       -0.007653566 -0.074473485 0.05968424 0.03412192
000340 91 79 35 3b e4 43 c4 bc 07 38 63 bc 24 00 b9 3d
       0.0027690867 -0.023958154 -0.013868338 0.0903323
000350 71 75 9d 3c 0b f7 41 3d 58 8a 29 3d 65 41 9e 3c
       0.01922104 0.04735474 0.0413917 0.019318292
000360 9d 1a 96 bd e6 7f 68 3d 05 a7 2e 3e 3a 6d 03 3c
       -0.07329295 0.0567626 0.170559 0.008021647
000370 69 41 8b bd b7 df 1f bd ec 93 62 3d 97 4f f6 bc
       -0.06799585 -0.03903171 0.05531685 -0.030067248
000380 0c 20 48 3d bf aa 3e 3b 37 33 1f 3b ab 5a a4 3c
       0.048858687 0.0029093472 0.0024292 0.020062765
000390 27 af dc 3c 5b 94 d0 bc ec 8f 28 bc 3b 5e 1c bd
       0.026938988 -0.025461366 -0.01028822 -0.038175803
0003a0 9e 60 13 bc ad aa 29 bd 97 1e 53 bd c7 33 18 be
       -0.008995203 -0.041422535 -0.051542845 -0.14863501
0003b0 50 0a e6 bc 96 1c 32 3d 7e 01 27 3c 82 4d 94 3b
       -0.02808109 0.043484293 0.010193227 0.004525841
0003c0 2e 7c 17 bd 8c da 2b bd a4 1f 81 bd 61 4b 8c 3c
       -0.03698366 -0.04195647 -0.06304863 0.017125787
0003d0 bb 53 79 bd 2b 50 32 bd 55 b4 e4 3c 3d d4 d8 bc
       -0.060870867 -0.043533485 0.02791802 -0.02646839
0003e0 1d 46 37 bc d8 9f 93 3c 20 8e cb 3d a6 46 36 3c
       -0.01118615 0.018020555 0.099392176 0.011125242
0003f0 c7 21 cb 3d 37 a6 cf 3c a1 dd 08 3d 4a 38 78 3d
       0.09918552 0.025347812 0.033414487 0.060600556

linear.0.bias f4 [100]
000000 ca 5d 4f bc bd c4 69 3c 21 3a ef bc 10 85 ee 3c
       -0.012656638 0.0142680975 -0.029202523 0.029116184
000010 76 61 39 3d 09 5d 2c 3d 3b 30 e6 3c 7d 01 f9 bc
       0.04525896 0.042080913 0.02809917 -0.030396217
000020 a7 5e 14 bc b0 e3 2c 3d 0d f1 cc bc 9a a4 49 bb
       -0.00905577 0.042209327 -0.025017286 -0.0030768276
000030 6f 35 01 3c ea 81 9f bc fa 85 8a 3b 39 fa 65 3c
       0.007886275 -0.019471128 0.004227397 0.0140367085
000040 fd 16 19 3d 4b 1a c7 3b d9 b4 39 3d 68 ac dd 3c
       0.03737544 0.0060761324 0.045338485 0.027059749
000050 d2 0c cc bb 28 cc 11 3d e0 15 e6 bc a0 4a 07 bd
       -0.0062271142 0.03559509 -0.028086603 -0.033030152
000060 2e c9 6a 3b 68 a1 04 3c 46 63 19 bd ad 2d 36 bc
       0.003582548 0.008095123 -0.03744819 -0.011119288
000070 a9 29 f5 3c 57 bc 1b bd 1e 07 66 3c 16 45 73 3d
       0.029927092 -0.03802141 0.014039783 0.059392057
000080 bb 1f 57 bc 4f f7 ee 3c 4e f6 7b 3c 69 e0 8c 3c
       -0.013130124 0.02917066 0.015378548 0.01719685
000090 75 9b ee 3c 9b 40 a9 bc 69 1f 58 3b a1 c6 a1 bc
       0.029126862 -0.02066069 0.0032977706 -0.019748034
0000a0 18 b4 df 3c 15 70 0b bc 0c ec 02 3d fb a5 26 bc
       0.027307555 -0.008510609 0.031963393 -0.010171409
0000b0 9e b5 1a bc e5 af ba 3c ff 9b 8a 3b a1 6b c0 3c
       -0.009442715 0.022788951 0.004230022 0.023488821
0000c0 ed ee c0 bc 6f dd 19 bd 1f 8b 2c 3d 14 7f 75 3b
       -0.023551429 -0.03756469 0.042124864 0.0037459778
0000d0 82 ab 71 bc d9 d5 54 bc 21 79 d7 3c 00 4b b7 3c
       -0.014750363 -0.012990438 0.026302876 0.02237463
0000e0 1a 95 bf 3c 95 0c ff bc 78 d5 26 bc f6 e1 0e bd
       0.023386527 -0.03113393 -0.010182731 -0.034883462
0000f0 4e 1e b1 bc e4 91 4b bc 6b 9b 25 3b 66 4b 91 3a
       -0.021620896 -0.01242492 0.0025269638 0.0011085093
000100 a5 7b 0a 3d 6a 17 25 3c af 97 e7 3c b7 a8 6f bc
       0.033809323 0.010076383 0.02827057 -0.014627627
000110 30 2e bd 3c 7b 18 02 bd 91 69 ad bc 6f 6f c0 bc
       0.023093313 -0.031761628 -0.021168502 -0.023490636
000120 4b 34 75 3b 21 8d 0f bb eb 8d a1 3c 61 9b 5e 3d
       0.0037415202 -0.0021904188 0.019720992 0.0543474
000130 ee 85 9c bb bb cd 9c 3c de 83 0c bc 28 01 40 3d
       -0.004776708 0.019141069 -0.008576361 0.046876103
000140 c8 6b 7d 3c 91 06 50 bc 71 e6 a8 3c 46 be 4b 3c
       0.015467592 -0.012696878 0.020617696 0.012435501
000150 6d 37 fc bc b3 fe ac 3c 8c 0f 03 bd d9 c5 17 3c
       -0.030788148 0.021117544 -0.03199725 0.009263479
000160 36 35 03 bd 50 21 be 3b a1 4b dd bb 98 6c f5 bb
       -0.032033168 0.005802311 -0.0067534004 -0.007489752
000170 4a 3f 19 bb 7e 9f 9c bb 2d 8c ea 3c 27 d8 a6 3c
       -0.002338367 -0.004779755 0.028631294 0.020366741
000180 1c 28 28 3c 87 c1 cd 3c d5 8c 02 bc b1 08 ab bc
       0.010263469 0.025116695 -0.007968147 -0.020878168

linear.2.weight f4 [100, 100]
000000 91 15 d3 bb ab d9 ad 3d 53 1c 86 3c 23 7e 61 3d
       -0.00644178 0.084887825 0.016370928 0.055051934
000010 53 33 8e bd ed c5 b1 bd 06 fb 5e 3c 88 3c 19 bd
       -0.06943383 -0.086803295 0.013609653 -0.037411243
000020 da 84 1a bd 58 6c 3c 3d 92 59 d8 bd d0 22 01 bd
       -0.037724353 0.046001762 -0.10563959 -0.03152734
000030 12 f7 58 bd a8 ee 4f 3c 63 03 a6 bd 30 82 73 3d
       -0.05297 0.012691177 -0.08106115 0.05945033
000040 64 d0 b8 bd df 00 14 bd 47 5e 97 3c f7 23 2c 3b
       -0.09024122 -0.036133643 0.018477572 0.0026266554
000050 29 63 85 3d 74 1f 58 3c ad b6 8d bd e8 c9 a7 bd
       0.06513054 0.013191093 -0.06919608 -0.081928074
000060 16 8d ae bd 0f b6 9b bd de cc 43 bd c5 84 09 bd
       -0.08523004 -0.07603084 -0.0478028 -0.033573885
000070 54 07 9f 3d 03 33 5c bd 4a c9 b7 bc 01 71 a3 3c
       0.077650696 -0.053759586 -0.02243485 0.019951345
000080 89 55 9d 3d 44 8c d0 3b a0 61 75 bd da e8 2c bd
       0.0768233 0.006364377 -0.059907556 -0.042214252
000090 7a 92 9a 3d 90 f4 90 bd 02 c3 db bc 23 9f af 3c
       0.075474694 -0.070778966 -0.026826385 0.021438187
0000a0 9a 65 60 3b 04 e3 10 3c 6f 2e 29 bd 81 b2 e6 3c
       0.0034240247 0.008843187 -0.04130405 0.02816129
0000b0 ad 94 2d bd 5d 9d 62 bd 29 56 cf 3c bf d0 a8 3d
       -0.042378116 -0.055325855 0.025309639 0.0824294
0000c0 5b 27 a2 3d 48 17 b6 3d a7 ac 79 3b d8 bc 56 bd
       0.07917663 0.08891159 0.0038097294 -0.05242619
0000d0 bf 0c b4 bc f9 49 b4 bd 6c a6 04 bd ae 8e d2 bc
       -0.021978734 -0.08803172 -0.032385275 -0.0257028
0000e0 17 29 b8 3d fd 86 86 3c 2e 3f cd bd 40 4a 8c bd
       0.08992212 0.01642179 -0.10021816 -0.068500996
0000f0 42 22 9a bd 80 c8 ba bc c6 21 1d bd 02 74 d9 bd
       -0.075260654 -0.022800684 -0.038362287 -0.1061783
000100 28 4e 82 3c c1 2b 4f bd 9a c6 60 3d cf ff 83 bd
       0.015906408 -0.050578836 0.0548769 -0.06445276
000110 d1 e5 8d bb 7d e6 32 bd 10 c1 9d bd 4a 6b bf 3c
       -0.0043303748 -0.043676842 -0.077028394 0.02336659
000120 6c 81 4e bc 11 c8 9e bd 10 a9 8b bc 6e c0 82 bc
       -0.012604099 -0.077530034 -0.017048389 -0.015960898
000130 36 ba a1 bc de 9f 72 bd 78 4a 71 3d 88 f0 db bb
       -0.019742113 -0.059234492 0.05890891 -0.006712023
000140 29 bf f8 3a 3d 2f cf 3d 51 9b b0 bd 4a c1 9f 3c
       0.0018977869 0.10116432 -0.08623374 0.019501347
000150 3f 9b 80 bd 2d b6 94 bd 26 ce 81 bc 84 98 18 3b
       -0.06279611 -0.0726131 -0.01584537 0.0023284266
000160 e7 81 eb bc 5f 57 b2 bd 11 fc 8a 3d e5 a2 a1 bd
       -0.028748466 -0.08708071 0.06786359 -0.07892398
000170 06 9a a6 bd b6 08 83 bd f9 b0 4f 3d 8e 21 f5 3c
       -0.081348464 -0.06398146 0.050705884 0.029923227
000180 bb fa 4b bd 5a 92 22 3c 47 08 8d bd 2f 73 2b 3b
       -0.049799662 0.009922588 -0.068863444 0.0026161184
000190 b9 80 d4 3c c1 32 72 bd 8b 0d b8 3c 32 0c 00 bd
       0.025940286 -0.059130434 0.022467395 -0.03126163
0001a0 30 8a 88 bb a5 da ad 3d 52 d6 1d 3d b9 1f 31 3e
       -0.004166864 0.08488969 0.03853447 0.17297257
0001b0 72 8d b7 bc be d0 c7 3d 22 bb c8 3d cf 1f 0c 3d
       -0.022406314 0.09756611 0.09801318 0.034210023
0001c0 2c 3c d1 3d d5 c5 54 3d 3b af 5e 3d 1e ac b2 3d
       0.10216555 0.05194648 0.05436633 0.08724235
0001d0 4e c9 98 bd f4 9c 1e 3d 37 ab af bc 8a 62 18 bd
       -0.07460271 0.0387239 -0.021443946 -0.03720335
0001e0 28 8d 3e bb b6 c7 c7 3d 4b 87 f0 bd 90 75 02 3d
       -0.0029075835 0.09754889 -0.11744555 0.031850398
0001f0 fe 96 e2 3d 59 19 0c 3d 73 7d 14 be 51 64 9c bd
       0.11063956 0.03420386 -0.1450098 -0.07636321
000200 f2 08 50 3d af 5d 92 bc 25 ed 47 bc 78 e6 1a bd
       0.05078978 -0.017866937 -0.012202536 -0.03781745
000210 33 76 10 3e aa 0c 44 bd f3 be c1 3d 69 01 0e 3e
       0.1410759 -0.04786364 0.09460249 0.13867725
000220 df de 39 3c 87 37 76 3c cd 63 8a bd 58 f4 11 be
       0.0113446405 0.015027887 -0.06757317 -0.14253366
000230 56 1a 40 be 84 95 e4 3d f0 3d 04 3e f0 ae d6 3d
       -0.18760046 0.1116133 0.12914252 0.104825854
000240 9c 22 33 bd d7 fe 1f 3e 01 14 81 3c 38 66 b3 3d
       -0.043734178 0.15624557 0.015756609 0.08759731
000250 85 b5 3d be 8e 09 b8 bd 18 57 10 3d 88 02 64 3d
       -0.18526275 -0.089861974 0.03523931 0.055666476
000260 d2 98 dd 3d ad d3 43 3e 76 28 a1 3d e0 42 d3 bd
       0.10820164 0.19123717 0.078690454 -0.1031549
000270 d1 d0 d3 bc f9 d5 56 3e fb d6 19 bd 89 0e 33 3d
       -0.025856407 0.20980062 -0.037558537 0.043715034
000280 19 6a b3 3d fd ea 3c 3d b3 97 4a bd 62 ca cf 3d
       0.08760471 0.04612254 -0.049461078 0.10146023
000290 b6 e1 9a ba 1c ce 52 bd 4d 32 70 bc c8 ae 1f 3a
       -0.0011816535 -0.051466092 -0.01466043 0.0006091413
0002a0 5c 73 86 3b be 16 ad bd e8 92 24 3d ea 17 a1 3d
       0.0041031074 -0.08451603 0.040179163 0.07865889
0002b0 45 14 4f 3d ff f4 50 bd f2 f8 a0 ba 91 6f 23 3c
       0.05055644 -0.051014896 -0.0012281223 0.00997533
0002c0 56 fc 55 3e 02 ea cb 3d c9 fa 21 3d 40 d0 9b bc
       0.2089704 0.09956743 0.039545808 -0.0190202
0002d0 f2 8a 1a bd ed 62 b1 3d 45 23 36 bd 10 e0 85 3d
       -0.037730165 0.08661447 -0.04446723 0.06536877
0002e0 24 fa 28 3e 19 24 fe 3c 4e ba 29 bc 81 77 f6 bd
       0.16501671 0.031023072 -0.01035936 -0.12034512
0002f0 12 02 e0 3c b2 67 0c bd f7 ac d2 bd de 87 93 3d
       0.027344737 -0.03427858 -0.10286897 0.07203649
000300 1a 23 df 3d cc ef 05 3d 1e b4 ce 3d 8e c8 27 bd
       0.10895367 0.03269939 0.100929484 -0.04096275
000310 d2 5d 15 3d 9d 21 cf bd 85 79 31 bd 95 ce 04 be
       0.036466427 -0.10113833 -0.04332878 -0.1296943
000320 99 94 25 3d 9b c4 d2 bd 2b 87 09 3e 2d de ae 3d
       0.040424917 -0.10291406 0.13430469 0.085384704
000330 0d fd 57 3d 2e ea ae 3d fa ac 18 bc fa 6a 2e 3d
       0.052731562 0.0854076 -0.009318585 0.04258249
000340 f1 30 70 bd bc 46 25 3b e1 50 53 3d 20 47 c4 3d
       -0.058640424 0.0025219163 0.051590804 0.095838785
000350 6c f7 6d be 68 dc c2 bd 0d d1 67 3d 86 69 db bc
       -0.23238915 -0.095146954 0.05659585 -0.026783716
000360 6e 0f e0 3d df b7 c2 bb 49 69 42 bd 4b ce 8d 3d
       0.10940443 -0.0059423293 -0.04746369 0.06924113
000370 c6 3b d6 3d da 7c 0d be 6d 62 2b 3d 80 b0 82 bd
       0.1046062 -0.13817158 0.041841913 -0.06381321
000380 71 0b 66 3d fe 82 d2 3d 46 ac 36 be 6d ea 14 be
       0.056163255 0.10278891 -0.17839155 -0.14542551
000390 8f ce 8b bc 6c ef 1f be 83 6c 09 be 14 2a 0c 3d
       -0.017066268 -0.15618676 -0.134203 0.034219816
0003a0 47 30 df 3d 01 df 87 bd 8a 01 a7 3d ba 27 ee 3d
       0.1089788 -0.066343315 0.081545904 0.11628671
0003b0 74 98 39 3d cf d0 83 3d 22 ba 44 3d 2d 3d ac bd
       0.045311406 0.064363115 0.048029073 -0.08410106
0003c0 4a 91 88 bd 8f f8 93 3d ec 51 ea 3c 39 7c 9f bd
       -0.06668337 0.07225143 0.028603517 -0.077873655
0003d0 ec 2e 97 bd 76 2b 8f 3d 87 0b e5 bd 7d 2c 63 3c
       -0.073819965 0.069907114 -0.11183839 0.013865587
0003e0 f3 4a 43 3c 2b fc 96 bc 04 0e 28 3c 28 e8 7c 3d
       0.011919725 -0.01843079 0.010257248 0.06174484
0003f0 c1 6c 7b bd 77 11 d8 3d de 9a f9 3d 69 66 c9 3d
       -0.061383013 0.10550206 0.12187742 0.09833986

linear.2.bias f4 [100]
000000 71 e7 69 bd d5 3e 1b bd 05 b4 41 bd d4 57 ee bc
       -0.057105485 -0.03790172 -0.04729082 -0.029094614
000010 82 3f d3 bd 8a ad 65 bc 85 1a 9e bd 01 d0 a9 3d
       -0.103148475 -0.014018426 -0.07719902 0.08291627
000020 ec 6b 80 bd be 69 a2 3d fd 43 19 3d 50 d2 03 bc
       -0.062705845 0.07930325 0.037418354 -0.008045748
000030 02 fe 35 bd 89 db cd 3d f1 48 19 3b b2 4e 46 3c
       -0.044431694 0.10051639 0.0023389424 0.012103723
000040 92 44 d7 3c d8 01 82 3c 14 a7 9c 3d 81 59 32 3d
       0.026277814 0.01587002 0.07649055 0.04354239
000050 cc d3 2f bd a8 87 b3 3d 7c 27 9f bd 4e f4 e5 bd
       -0.042926595 0.08766109 -0.07771203 -0.11228238
000060 36 1c 4f bd 7d dc 0f bd 46 2d bd bc 62 eb 87 3d
       -0.050564013 -0.035122383 -0.023092877 0.066366926
000070 24 b6 d0 bc 00 71 d2 3d c6 10 53 bc ac 59 83 bc
       -0.025477476 0.10275459 -0.012882417 -0.01603397
000080 e3 82 86 bd 1c 5f a0 bd 46 b3 65 ba 44 11 9a bd
       -0.065679334 -0.07830641 -0.00087623706 -0.075228244
000090 cd 37 11 3e 60 05 18 3d 56 15 f6 bc 91 02 82 bd
       0.14181443 0.0371145 -0.03003947 -0.06348146
0000a0 2e 3c aa 3d 4d 88 c4 bc a4 c2 82 bd 13 41 de bc
       0.083122596 -0.023990775 -0.06384781 -0.02713064
0000b0 de 00 b7 3d 3e a5 bf 3d e5 24 81 bc 3c 2c 87 3d
       0.08935712 0.09357689 -0.015764663 0.06600234
0000c0 f3 9c 25 bd af cc d3 bc 6e ec 42 3d ba 0f 01 bc
       -0.04043288 -0.025854437 0.04758876 -0.007877285
0000d0 60 06 f8 3d ff 59 d4 bb 93 f1 1a bd b5 00 38 3d
       0.12110591 -0.006480455 -0.03782804 0.04492255
0000e0 97 3c 18 bd 44 4a d0 bd 17 e1 b9 3d 92 48 eb 3c
       -0.037167158 -0.10170415 0.090761356 0.028721128
0000f0 4f e2 f6 3c 33 44 6d bd 1d ae 73 3d 8a 66 82 bc
       0.03013721 -0.057926368 0.05949222 -0.015918035
000100 d3 21 5d bd 03 ea cf 3c 79 8d c1 3d 46 6f 31 3d
       -0.053987335 0.02538014 0.09450812 0.04331901
000110 40 a9 a3 3d 5f 2b c2 3a df 42 f6 3a 36 94 5b bd
       0.07991266 0.0014813951 0.001878824 -0.05360814
000120 a7 25 87 3d a9 64 a4 bc 55 cd b9 3d 90 94 e2 3c
       0.065989785 -0.02006753 0.09072367 0.02765873
000130 16 42 b7 bd 29 43 f5 3d 4a 31 2a 3d f9 15 cb bd
       -0.08948152 0.119757004 0.041550912 -0.099163
000140 ce a1 67 3d f0 6b 61 3d 32 21 a9 3d 6e 1b 8a 3d
       0.056550793 0.055034578 0.08258285 0.06743513
000150 07 3a af 3c 09 bb 63 bc 1f c9 2f bd c0 57 ca bc
       0.021389974 -0.013899573 -0.042916413 -0.024700046
000160 81 68 fa bb ae 02 05 3e 75 08 c3 3d 66 04 a2 3b
       -0.0076418524 0.12989303 0.095230974 0.004944372
000170 64 74 81 bd ba be 93 3d cf 7b 5f 3d e5 43 80 bd
       -0.06321028 0.072141126 0.054561432 -0.0626295
000180 e9 f3 8e bd c9 f8 23 3d 8d e4 aa 3d 8c 80 aa 3d
       -0.06980116 0.040032182 0.08344374 0.083252996

linear.4.weight f4 [10, 100]
000000 77 72 11 3d 07 f6 1c bd fa 47 3b be 5a ec 4d 3c
       0.035509553 -0.038320567 -0.18289176 0.012568558
000010 05 b3 b0 3d 27 4a c0 bc fb 17 b2 bd d7 96 b4 bd
       0.08627895 -0.023472859 -0.0869598 -0.08817833
000020 5d eb 9d 3d f3 2b b8 3d 1f 66 25 bd 03 98 08 3e
       0.077109076 0.08992758 -0.040380593 0.13339238
000030 91 fd 4d be 39 f6 2c 3c d5 c7 04 3e 79 73 cf 3d
       -0.20116259 0.010556751 0.12966855 0.101294465
000040 b6 43 2e 3d 95 77 a5 bd 66 07 c0 bd 4e 0e ed 3d
       0.042545043 -0.08079449 -0.09376411 0.11574994
000050 48 37 c1 3d de 89 82 be e6 c3 26 3e 70 ca 3e bd
       0.09434372 -0.2549581 0.16285667 -0.04657978
000060 4d 21 9d 3d 2d 9f d7 bd 1c 6b d2 3d d0 44 fc bc
       0.07672367 -0.10528407 0.10274336 -0.030794531
000070 04 b3 06 be 04 4a 55 be 24 7b 60 be 32 c3 a8 bd
       -0.13154227 -0.20829016 -0.21921974 -0.082403556
000080 70 a1 2f 3e 37 95 89 bd 7c a2 78 be e8 9a ee 3d
       0.17151427 -0.067179136 -0.24280733 0.1165064
000090 a5 f6 eb bd 78 46 8b bd 16 e2 de bd dc 76 1b bc
       -0.11521653 -0.0680055 -0.10882966 -0.0094887875
0000a0 ff 10 f9 bd 33 00 4b 3b 2a a8 46 be 75 2d 92 be
       -0.12161445 0.003097546 -0.19400087 -0.28550306
0000b0 1f 27 1a 3e 3a 0b 87 bd 7a 5c 8e bd 3b 1e 81 be
       0.15053986 -0.06593938 -0.06951232 -0.25218377
0000c0 9b 58 e5 3d d8 b1 35 3e d7 45 8d bd 4f 72 97 bd
       0.11198541 0.17743623 -0.068980865 -0.073948495
0000d0 72 f0 22 be 08 83 d4 bc 55 32 ff 3d f4 e9 0e 3e
       -0.15912035 -0.025941387 0.12460772 0.13956434
0000e0 1e be 9b 3d 02 21 ef 3d 99 bf 12 be f7 b4 9c 3c
       0.07604621 0.116762176 -0.14330901 0.01912926
0000f0 84 f4 a4 bd 4d 75 a5 bb a1 d6 03 3e 3f 5f 00 3e
       -0.0805445 -0.0050493837 0.12874843 0.12536334
000100 b1 20 f8 bd 45 07 b1 bc fc 0d cf 3c e0 7c 8e 3c
       -0.121156104 -0.021609912 0.025275223 0.01739353
000110 97 e8 0b be 26 a4 f2 bd d6 19 b8 3d 13 31 be bd
       -0.13662945 -0.11847715 0.08989303 -0.09286704
000120 76 cc 41 be 13 dd 2a 3c 03 ec d7 3d f3 1e dc 3d
       -0.18925652 0.010428685 0.105430625 0.107480906
000130 ea 00 ba be d0 8b 8b 3c db e6 bd 3b 1c 60 23 be
       -0.36328822 0.017034441 0.0057953424 -0.15954632
000140 17 e0 22 3e 93 7d 0f bd 90 8c 3d bd a4 c0 2c 3d
       0.15905796 -0.035031866 -0.04627663 0.042175904
000150 6b 7f a5 3d 4a c1 2b 3d f9 8e 5c be 51 c3 99 3d
       0.08080944 0.04193238 -0.21538915 0.07507957
000160 6b 04 67 bd e6 b0 c7 bd 8d c3 87 be b1 07 c0 bd
       -0.056400698 -0.097505376 -0.2651638 -0.09376467
000170 27 ba 69 3d 99 86 10 3e 03 59 8c 3c 14 45 20 be
       0.057062294 0.14113845 0.017132288 -0.15651351
000180 02 fd b5 3d 0a bd cd bd 32 0e d0 3c b6 d7 e1 3d
       0.08886148 -0.10045822 0.025397394 0.11027472
000190 15 1f 0f 3d db e2 fc bd 11 2e b7 bd 8d 28 e4 bd
       0.03494175 -0.12347957 -0.08944333 -0.11140547
0001a0 53 ef 9a bc 7c 3b de 37 53 e0 0d 3d fb ff 02 3d
       -0.018912947 2.6492162e-05 0.03463776 0.031982403
0001b0 e0 63 41 bd 22 1b f2 3c 4b f7 a6 3d ec db bf bd
       -0.04721439 0.029553954 0.08152636 -0.09368119
0001c0 3f c9 d7 3d 88 98 2a bd ec bf 0e be e0 d7 5b bd
       0.105364315 -0.04164937 -0.139404 -0.05367267
0001d0 75 36 5c be d8 2d ad 3c 89 79 f8 3d 60 cb 34 bd
       -0.21505149 0.021140024 0.12132556 -0.044139266
0001e0 99 bb cd 3d ef d6 20 bd 58 81 92 3e 86 05 11 bd
       0.10045547 -0.039267477 0.28614306 -0.03540566
0001f0 d7 5b 1d bd 53 0f 7f 3d 47 6a 35 3e 15 58 3a 3d
       -0.038417663 0.062270474 0.17716323 0.045494158
000200 03 94 bf 3d 84 b3 10 3e 60 c0 f6 3d 2e e3 05 be
       0.09354403 0.1413098 0.12048411 -0.13074943
000210 0e 5b fa bd 3d 3a 82 3d 69 a6 71 3d c0 36 e8 bd
       -0.122243986 0.06358764 0.05899659 -0.11338568
000220 a3 dd 0b be 5e 63 c7 3d 8a 6d b9 3d 9e 3f fc bc
       -0.13658766 0.0973575 0.09054096 -0.030792054
000230 03 49 7c 3e 22 21 b9 bd 29 68 50 bd 46 22 f0 3d
       0.24637227 -0.09039523 -0.050880585 0.11725287
000240 95 9a 7d 3d 1c 95 a6 bd 17 f4 8e bd 2a a7 7f 3d
       0.061915 -0.08133909 -0.0698015 0.06241528
000250 e2 a7 8c bd 11 75 e8 bd cf a8 53 be 1c 89 27 bc
       -0.068679586 -0.11350454 -0.20669864 -0.0102255605
000260 b6 35 5b 3a 88 f9 25 be 77 e4 84 3c 8c 9e 21 3b
       0.00083621906 -0.1620847 0.016222222 0.0024661152
000270 75 25 55 be 6a f7 c4 3d 06 27 fe bd 88 11 1a 3c
       -0.2081507 0.09617503 -0.12409787 0.009403594
000280 b9 8f da bd bb 34 8e bd 6c 0e 41 be 05 ec bc 3d
       -0.10671944 -0.06943651 -0.18853158 0.09224705
000290 f8 c0 dc 3d dd 24 a9 bd 58 ca 7a 3d 6f af 97 3d
       0.10778993 -0.08258984 0.061228126 0.07406508
0002a0 50 eb 24 3d 0c 6e f1 bd bd 39 91 3d b3 22 4f 3e
       0.040263474 -0.11788568 0.07091091 0.2022808
0002b0 11 c6 2c 3e 76 e0 ad bd 24 48 b6 3d de bb f2 bd
       0.16872431 -0.08490078 0.089004785 -0.11852239
0002c0 17 52 2d be ef ad a2 3c e8 d5 42 3e cd fd bd 3d
       -0.16925846 0.019858329 0.19026911 0.09276924
0002d0 27 d9 31 3d 47 63 4e 3e f4 ec 2f 3e 56 3c 0e be
       0.043419983 0.20155059 0.17180234 -0.13890204
0002e0 b6 f1 05 3e f9 e4 e3 3c 86 d5 93 be 37 9e b6 3d
       0.13080487 0.027819144 -0.28873843 0.08916896
0002f0 34 57 d3 3d 2b 98 cb 3d f7 2b 10 3e b2 f5 52 3d
       0.10319367 0.09941133 0.14079271 0.051503845
000300 67 bd 49 be eb 23 3f be b6 36 08 3d 9b 2c 91 bd
       -0.19701158 -0.18666045 0.0332553 -0.07088586
000310 66 76 5c be 63 cc 0f be 3c 83 7a be 9c 4b df 3d
       -0.2152954 -0.14042811 -0.24464124 0.10903093
000320 c7 f8 46 3d dd c1 83 bd 5a d2 08 be 0f be 15 3e
       0.048577096 -0.06433461 -0.13361493 0.14623283
000330 ad 36 ff 3c 9e 1d 33 bd f4 eb 2c bc 84 a4 79 bd
       0.031154001 -0.043729417 -0.0105543025 -0.06094791
000340 9e 7a 35 be 26 34 7f 3d 95 d3 ac bc ed 6e 88 bd
       -0.17722556 0.062305592 -0.021096984 -0.066617824
000350 8d 90 69 3c e4 58 2b be 40 64 2b 3e 5d 57 2d 3b
       0.014255655 -0.16733128 0.16737461 0.0026449778
000360 58 d9 01 3e 29 41 48 3d 54 26 9b bc d8 bd ff 3b
       0.12680566 0.048890267 -0.018939175 0.0078046136
000370 e4 ea 69 be 26 82 5d be d1 65 6b 3e cf 9f 0d 3d
       -0.2284351 -0.21631679 0.22988059 0.034576233
000380 d9 e3 1f be 2b f9 81 be fc ca 62 3d 78 2c bc 3b
       -0.1561426 -0.25385413 0.055369362 0.005742606
000390 7e f5 1b 3e c7 73 d9 3c 16 f2 1d be 93 6c e4 3c
       0.15230367 0.026544465 -0.1542438 0.027883803
0003a0 d3 16 09 3e c1 22 b0 bd cd 91 95 bd 48 d0 9b bd
       0.13387613 -0.08600379 -0.073032 -0.07608086
0003b0 e5 f2 0b bd 2a a4 fd bd 86 a0 c2 3d 7b 00 74 3d
       -0.03416719 -0.123848274 0.09503274 0.05957077
0003c0 fa a3 22 be af 7f 2c be f9 ab 61 bb 01 1d 57 3e
       -0.15882865 -0.16845582 -0.003443478 0.21007158
0003d0 66 dc 39 be 28 4f a0 3d 8a 0b 86 bd e3 8d 11 3e
       -0.18150482 0.07827598 -0.0654517 0.14214282
0003e0 5a 2b d3 3d ca e6 a3 3d 14 58 87 3d fc eb 4c 3d
       0.10311003 0.08003004 0.066085964 0.05002974
0003f0 f8 56 9a bd 5a dd 37 3d 3e 92 27 3e 62 1a 68 be
       -0.07536119 0.04488883 0.1636438 -0.22666314

linear.4.bias f4 [10]
000000 e8 98 8a bc a4 4f 09 bd 82 98 ec 3c 76 35 9a bc
       -0.016918615 -0.033523217 0.028881315 -0.01882432
000010 93 65 bd 3d 3d 48 3d bd d2 e1 9c bd 74 17 40 3b
       0.09247889 -0.04621147 -0.07660259 0.0029310854
000020 e9 c9 49 bc ae 86 03 3d
       -0.012316206 0.032110862
